AutoEncoder-MNIST/AENet_2.ckpt (torch_old, 631580 bytes, 4 tensors)

fc1.weight f4 [100, 784]
000000 e8 22 ca 3c 92 8a 6d bc e0 20 17 3c 00 45 c3 bb
       0.024674848 -0.01449837 0.009224147 -0.005959153
000010 b4 d6 21 3c 64 70 03 bd 45 a5 9d bc 80 12 9f 3c
       0.009877849 -0.032089606 -0.019243846 0.019418001
000020 ba 21 b7 3c 36 af ea 3c 80 dd 5a 3a 70 21 55 bb
       0.02235495 0.028648 0.0008349046 -0.003252115
000030 43 c7 d3 bc 65 21 a0 bc 1b 2f 0b 3d 4b c7 02 bd
       -0.025851851 -0.019547174 0.03398047 -0.03192834
000040 00 c3 cd 3b 28 0f b2 3b 40 62 de ba a4 21 85 3c
       0.0062793493 0.0054339357 -0.0016966537 0.016251393
000050 28 c5 ec bc c3 63 0b 3d 57 35 12 3d aa 0b 2b bc
       -0.028902605 0.034030687 0.0356954 -0.010439793
000060 b3 7d ea bc 2e e9 c2 bc 6f f1 10 3d 90 b0 1b bb
       -0.028624391 -0.02379283 0.0353865 -0.0023756362
000070 28 f0 4c 3c 40 98 1a 3c 9c 94 45 bc 33 55 00 3d
       0.01250843 0.009435713 -0.012059357 0.031331252
000080 1a 54 00 bd d4 94 6c 3c 7e 4d 95 3c a0 aa c4 bc
       -0.031330206 0.01443978 0.018225428 -0.024007142
000090 ca 29 36 bc 93 8c 82 bc 73 62 c7 bc b0 88 16 3c
       -0.011118362 -0.015936172 -0.024338936 0.009187862
0000a0 00 60 da 3c 52 2c 0a 3c 6b 36 99 3c 00 ce 1f 3a
       0.026657104 0.008433418 0.018702706 0.0006096065
0000b0 48 9d 1b 3c f3 27 9a 3a 2e 21 ca 3c 5f b2 0f bd
       0.009497948 0.0011761173 0.024674024 -0.035082217
0000c0 b4 03 11 3c c0 04 94 bc ac f2 c4 3c ac 5b b4 bc
       0.008850981 -0.018068671 0.024041496 -0.022016369
0000d0 d2 d0 d8 3c ab 00 01 3d b8 37 c2 3b 50 22 12 3c
       0.02646676 0.031494778 0.0059270523 0.008919314
0000e0 4e 84 c3 3c d0 a2 6b 3c 78 50 98 bb 88 bd 33 3c
       0.023866799 0.014382079 -0.0046482645 0.010970481
0000f0 6e 5f fc 3c f4 76 66 3c 08 e8 cd bb 0e 8d ba 3c
       0.030807223 0.014066447 -0.006283764 0.022772338
000100 00 51 e4 3a e0 70 11 3b a6 f4 4b bc 92 11 ea bb
       0.0017419159 0.0022192523 -0.012448465 -0.007143208
000110 ce e7 da 3a 3d 1b 80 3c 60 b5 fc 3c d7 0c e4 bc
       0.0016701163 0.015637988 0.030848205 -0.027838154
000120 77 67 e8 bc 6e 4f d9 bc 52 4b e5 3c 81 7d 0b bd
       -0.028369648 -0.026527133 0.027990017 -0.034055237
000130 5a b6 c5 3c be 79 91 3c 6e 20 fb bc e0 de 7e 3c
       0.024134804 0.017758247 -0.030655112 0.015556067
000140 12 49 67 bc 66 1f f2 3c f8 05 98 3c 5a 25 cd 3c
       -0.014116542 0.029555988 0.018557534 0.025042225
000150 b0 aa 9f 3c bc d4 76 bc cc 5a 8c bc 30 d8 11 3c
       0.01949057 -0.015065368 -0.01713314 0.008901641
000160 a8 8b 91 3b fa dd a0 bc fa 0e f4 bc 6a 6e 23 bc
       0.004441697 -0.019637097 -0.029792298 -0.009975055
000170 04 7a 04 bd 2c e4 c9 bc 6d b7 90 3c cd 18 6f 3c
       -0.032342926 -0.024644934 0.01766559 0.014593315
000180 9f cf cf bc 91 53 d8 bc 37 bb 89 3b 5c 28 1e bd
       -0.025367556 -0.026407035 0.004203226 -0.03861271
000190 84 ab e2 3c 82 d8 cf bc b0 fc 27 bd 17 6f 1b bd
       0.027669676 -0.025371794 -0.041012466 -0.03794774
0001a0 16 3a 0f bd 34 d6 0a bd b8 3f 96 bb 02 72 04 bd
       -0.034967504 -0.033895686 -0.0045852326 -0.03233529
0001b0 ba ec fe bc b5 b4 c2 bc b5 c2 e8 bc e7 e0 98 bc
       -0.03111874 -0.023767808 -0.028413156 -0.01866193
0001c0 98 65 3d bc 68 69 de bc 90 2d 35 3b fc 87 4f 3c
       -0.011559866 -0.027149871 0.0027645566 0.012666699
0001d0 a0 83 e7 ba 7a b3 ea bc 40 73 e8 bc 7c 17 04 bd
       -0.0017663129 -0.028650034 -0.028375268 -0.03224896
0001e0 ef 10 48 ba 25 e3 ea bc ee 13 88 3c 2c e4 8a 3c
       -0.0007631918 -0.028672764 0.016611066 0.016954504
0001f0 42 78 c7 3c 4d da 87 bb 8f 99 00 bd 70 2c 63 bc
       0.024349336 -0.0041458965 -0.031396445 -0.013865575
000200 d3 14 a3 bc f7 29 7a bc 79 c0 c1 3c 9a 2b bd 3c
       -0.01990739 -0.015268794 0.023651348 0.02309208
000210 32 65 0e bd 83 bd 6e bc e1 31 e6 3b 24 47 51 3c
       -0.034764476 -0.01457155 0.007024989 0.012773309
000220 2d 97 02 3c 2a 06 b7 3c 2e e2 04 bc 8e 3e d5 bc
       0.007970613 0.022341806 -0.008110566 -0.026030805
000230 38 f1 c5 3c 38 d3 ac 3b 60 f4 e9 3a 38 ca 90 3b
       0.024162874 0.0052742027 0.0017849319 0.0044186376
000240 92 e0 53 3b ef dc 1c bd 46 88 e9 bc 59 87 9b bc
       0.00323299 -0.038296636 -0.028507363 -0.018985437
000250 f5 eb aa 3a c2 06 2a bd 2a 22 1a bd a6 c1 01 bd
       0.0013040291 -0.04151035 -0.037630238 -0.03167882
000260 89 f0 94 bc bd d1 e7 bb 53 01 2b bb 3c 6b 5a bb
       -0.018181102 -0.0070745633 -0.0026093319 -0.0033328077
000270 10 c3 b7 bc 7e c0 a2 3b db 14 c3 bc 06 39 a2 3c
       -0.02243188 0.0049667945 -0.023813656 0.019802582
000280 77 0e 8e bc 89 2b 2f bc e0 c1 6f bc 96 43 13 bd
       -0.017340882 -0.010691532 -0.014633626 -0.035953127
000290 34 51 1f bc 5e 6d 62 bb 38 1a 80 3c de 77 d0 bc
       -0.00972395 -0.0034550051 0.015637502 -0.025447782
0002a0 25 36 0f 3d 00 ea 00 3a 3e 4c d1 3c 82 20 80 bc
       0.034963746 0.0004917681 0.02554905 -0.015640501
0002b0 8d 15 7a bd 3f 2b c0 ba d7 88 d9 bb 39 27 f1 ba
       -0.06105571 -0.0014661326 -0.006638627 -0.001839853
0002c0 1a de 4d 3a 39 37 13 3d 8f fc 95 3b b7 7e 24 3d
       0.0007853225 0.035941336 0.0045772265 0.040159907
0002d0 a0 a9 17 3d d3 94 31 3c 14 2f ee bc 90 b8 08 bc
       0.037027 0.010838705 -0.029075183 -0.008344784
0002e0 c3 78 ae 3c 68 fb f5 3c 85 22 57 bc c7 51 23 bd
       0.021297818 0.030027106 -0.013130789 -0.03987291
0002f0 f1 29 18 bc 32 22 0b bd 0c 03 ce bc cc 15 c5 3c
       -0.009287343 -0.033968158 -0.025147937 0.024058245
000300 9b 13 28 bd b8 14 08 bd 9b 75 1c bd 4f da 01 3d
       -0.041034322 -0.033222884 -0.038198095 0.031702336
000310 dc 32 63 3c 4a 68 97 3c 81 ea 0f 3d b0 79 80 3c
       0.013867106 0.018482346 0.03513575 0.015683025
000320 9d f2 e2 3b a1 4d a5 bc 4d 74 ed bc 50 30 18 bd
       0.0069258944 -0.020178618 -0.02898612 -0.03715545
000330 92 35 d6 bc 08 22 6d 3c 44 3c a8 3b 02 d2 37 bd
       -0.026148591 0.014473446 0.0051341373 -0.044878013
000340 fd fa 85 3c 59 0c dd bc b9 2c de bc 6e 7f ef 3c
       0.016355032 -0.026983427 -0.027120935 0.029235568
000350 d8 4a b2 bb d7 18 ac bc 7c 93 44 3c ee 5d b3 3b
       -0.005441051 -0.021007938 0.011998054 0.005473844
000360 68 de b5 bb 76 a8 8b ba 81 49 29 3c 42 1d aa bc
       -0.0055501945 -0.0010655064 0.010332466 -0.020765904
000370 52 0e 20 bd b9 32 94 bc 05 fa 11 3d ee 8a af bc
       -0.039076157 -0.018090593 0.035638828 -0.021428552
000380 d6 c0 f8 3c 00 0b 95 3d c1 3f b4 3c d2 9c 87 3d
       0.030365389 0.07277489 0.022003056 0.06621708
000390 fe 14 36 3d cf 18 29 bd fc e5 5b bd 1f 50 47 bb
       0.044453613 -0.041283425 -0.053686127 -0.0030412746
0003a0 80 6d 41 bd 6a f8 1a bd d2 a2 5d bb 42 d4 4c ba
       -0.047223568 -0.037834562 -0.0033818972 -0.00078136113
0003b0 47 97 28 bd 7d 0f 99 bc 12 b9 6d bc d6 37 06 bd
       -0.041159894 -0.018684143 -0.014509456 -0.032768093
0003c0 51 bc a9 bc 53 c6 5d 3b 44 e7 b1 bc 48 d1 30 bd
       -0.02071968 0.0033840134 -0.021716721 -0.043168336
0003d0 20 e1 de 3c 91 23 23 bb de ce 32 bd 5e a2 fb bb
       0.027206957 -0.0024893025 -0.043654315 -0.007679268
0003e0 e0 39 8a 3c a9 98 b6 bb ae 05 ec 3c 3a 65 83 bc
       0.0168733 -0.0055723977 0.028811302 -0.01603948
0003f0 c3 2a e7 bc 03 4b 95 3d e5 1e 81 3c 42 f5 96 3d
       -0.028218633 0.07289698 0.015761802 0.07370998

fc1.bias f4 [100]
000000 e0 fd 97 3c 57 f4 77 3d 2c 5c 69 3c 01 e1 0f 3c
       0.018553674 0.060535755 0.014243167 0.008781672
000010 9f 16 ac 3c 52 ef e9 3b bf a8 cf 3c 06 be 35 3d
       0.02100688 0.007139125 0.02534902 0.044370674
000020 c7 18 65 bd 91 17 ee 3c 5c 3d 1e 3d 80 a7 73 3d
       -0.055931833 0.029063972 0.038632736 0.059485912
000030 af 7c c0 3c 28 11 43 3d 4f 56 29 3d 21 b1 be bc
       0.023496954 0.047623783 0.041342076 -0.023277821
000040 cc f7 0e 3d a7 98 96 3d 80 61 b2 3c a6 67 97 3c
       0.034904286 0.07353335 0.021775007 0.01848204
000050 1f 05 02 3c c0 35 17 3c bc 81 a9 3c f0 d6 be 3c
       0.007935791 0.009229124 0.020691745 0.02329585
000060 ce 1b 87 bc 7f 69 85 3c 69 68 25 bd f8 19 a4 bc
       -0.01649275 0.016285656 -0.040382776 -0.020031914
000070 ee 5e 05 bd cd 4e e1 bc 0c f6 1b bd c9 1e 3a 3c
       -0.032561235 -0.027503395 -0.038076445 0.011359879
000080 03 8a a0 bc ff 6e 32 3b 8a e3 b8 bc de 30 fa 3b
       -0.01959706 0.0027226803 -0.022569437 0.00763522
000090 a3 70 4e 3d f1 cf 04 3c b2 9c 19 bd 13 f0 84 3d
       0.050400387 0.008106218 -0.037502952 0.06491103
0000a0 6c 25 fc bb 57 94 00 3b 11 24 2a 3d 39 c3 ad 3d
       -0.0076948907 0.0019619667 0.0415383 0.084845014
0000b0 0b b4 1d 3d db 18 c5 3c 5f e6 45 3c 11 ed 43 3c
       0.03850178 0.024059704 0.0120788505 0.0119583765
0000c0 fe 62 98 3d c1 04 83 bb f4 18 ed 3c 6e af 82 3d
       0.07440756 -0.0039983694 0.028942563 0.06381117
0000d0 cd 40 3c 3d 69 1b 47 3d a4 05 0d b8 2e cb 3c bd
       0.045960236 0.048610125 -3.3622273e-05 -0.046092205
0000e0 34 ed bf bc 68 05 38 3d 9a 61 10 bc aa fb 77 3d
       -0.023428537 0.04492703 -0.0088123325 0.06054274
0000f0 e4 5d 03 3d fe 49 2d bd e1 9c 86 3c 51 72 09 3d
       0.032071963 -0.042306893 0.016432228 0.033556286
000100 06 9b 3a 3d 6b 96 86 3c c6 63 b6 bc da 4b a2 bc
       0.045557998 0.016429147 -0.022264373 -0.01981156
000110 1d db d0 bb 75 2b f7 bc c6 ae fa bc 5a e9 a0 3d
       -0.0063737766 -0.03017209 -0.030600917 0.07857008
000120 c5 79 6c 3d ff c0 85 bb 1e ae 55 3d f4 bf 2a bd
       0.057733316 -0.004081845 0.052168004 -0.041686967
000130 ca 40 57 3c fc 9b 17 3d 3b db 34 3d ef dd 1b bd
       0.0131380055 0.037013993 0.044154387 -0.03805345
000140 27 04 57 3d 16 1a a4 3a 87 58 8a bc 2b fb 64 bc
       0.052494194 0.0012519981 -0.016887916 -0.013975899
000150 ee 00 b1 3b 2f 8a 9d bc ee 7d 25 3d 7d 94 e4 3c
       0.005401722 -0.01923093 0.0404033 0.027902836
000160 59 58 71 3c 47 9e 97 3d 57 fe 37 bd 38 75 53 3d
       0.014730536 0.07403236 -0.04492029 0.05162546
000170 9c 70 00 3e aa c3 1a 3c 4c b5 e5 3c ac 2b 41 3c
       0.12542957 0.009446064 0.02804055 0.011790197
000180 06 24 2e 3d 8e be ac bc 32 51 93 3b 6c f8 2b bc
       0.042514823 -0.021086957 0.004495763 -0.01049624

fc2.weight f4 [784, 100]
000000 c1 af 00 3c 6a 77 c3 ba 35 01 0d 3b 93 5a 6a 3a
       0.007854403 -0.0014912907 0.0021515612 0.0008939888
000010 68 73 c9 3a 9d 1e 0b 3a eb 99 27 b8 75 9c 0b 39
       0.0015369477 0.0005306991 -3.995925e-05 0.00013314358
000020 fd 15 5e 3a c8 ac 65 bb 8f 10 3e 3b 23 fb a1 3b
       0.00084719044 -0.0035045613 0.002900157 0.004943268
000030 28 38 8f bd 8c 2b a2 3a e6 62 e5 b8 b8 87 44 3d
       -0.06993133 0.0012372597 -0.00010937992 0.047980994
000040 8f 7d 03 3b 9b af 32 bb 30 b9 82 ba c4 0a 4b ba
       0.0020063852 -0.0027265314 -0.0009973403 -0.00077454397
000050 c5 74 f4 bc cf fc a4 bd 04 5e b8 3d c2 74 dd 3c
       -0.029840836 -0.08056032 0.09002307 0.027033214
000060 c8 db 8c bc 29 51 1c bb 4d 77 12 bd b9 e2 8b bc
       -0.017194644 -0.0023852086 -0.035758305 -0.017075883
000070 ae a3 bb bc e9 35 f0 ba 6c 38 08 3c 22 3c 6c bb
       -0.022905197 -0.0018326613 0.008314233 -0.0036046584
000080 b2 0a 22 3d 60 aa 09 bd 92 be 7e ba 85 02 04 bc
       0.03956098 -0.033609748 -0.0009717728 -0.008057241
000090 f1 41 72 bb 7a 9e 5f ba 49 20 b1 bd 8c e4 a1 ba
       -0.0036965574 -0.000853039 -0.08648736 -0.0012351437
0000a0 d2 96 70 3b 8d 86 a7 3d c3 f6 09 bb 0b 8f 6b 3a
       0.003671099 0.081799604 -0.0021051622 0.00089858536
0000b0 5e c1 88 3a 6f 2b 32 bd 76 9d 53 3b f3 2b 19 bb
       0.0010433604 -0.043498453 0.00322899 -0.0023372143
0000c0 c9 9c 2d 3b 15 36 c4 bb b6 fe 7c bb 39 a9 c4 39
       0.0026491156 -0.0059878924 -0.0038603968 0.00037510114
0000d0 24 57 f7 3a be a2 f2 38 c7 e5 4b bd 6c 99 0b 3c
       0.0018870574 0.00011569772 -0.04977968 0.008520465
0000e0 50 14 2e b7 45 46 e9 bb 92 cc b5 3d 05 31 07 3b
       -1.0375938e-05 -0.0071189725 0.08876909 0.0020628583
0000f0 eb a9 86 3a e6 34 a5 3d 06 88 56 bb 24 bb bb 3b
       0.0010274028 0.0806673 -0.0032734885 0.005729096
000100 e8 c2 91 3b 6b 0f aa 3a 6d 4d 1a bb fa c9 8f bd
       0.0044482835 0.0012974566 -0.0023544685 -0.07020946
000110 f2 2b 1a 3d a4 4c 94 bd db e5 aa 3d 6a e8 9d bb
       0.037639566 -0.072411805 0.08344623 -0.0048189657
000120 a7 5e e9 3a 11 e4 ad 3d 18 6c a6 39 87 10 b3 ba
       0.0017804698 0.08490766 0.00031742523 -0.0013661542
000130 40 51 68 bd bf ef 97 3b 09 1e 8c bb d5 5b b0 3d
       -0.05671811 0.0046367343 -0.0042760414 0.086112656
000140 87 eb 27 bb 01 0d fe 3a d5 39 c2 3c 6f 5b e2 3c
       -0.0025622563 0.0019382538 0.023709217 0.02763149
000150 dc a2 24 b9 35 ca b0 3d 17 56 2a 3b 0f ec 0d 3b
       -0.00015700929 0.08632318 0.0025991255 0.0021655594
000160 19 d7 bb 3a 53 55 fd b9 a7 0a d5 bb e1 c5 29 3a
       0.0014331072 -0.00048319492 -0.006501514 0.00064763246
000170 7a 57 03 3b cf d0 90 39 02 e6 58 3a 8d c8 c0 ba
       0.0020041154 0.00027621395 0.000827402 -0.0014708206
000180 e2 b4 a4 3b 86 b2 12 bd c9 5a 81 bb 6b db 75 3d
       0.0050264457 -0.035814784 -0.00394759 0.060023706
000190 34 e6 a8 bd 4b c9 89 3a f8 10 2d bb aa 37 ab 39
       -0.08247033 0.001051226 -0.002640782 0.00032657135
0001a0 1c a9 48 3b 66 60 10 3a 4f 80 35 b9 e7 17 d5 ba
       0.0030618375 0.00055075285 -0.00017309304 -0.0016257734
0001b0 91 5e 8f ba 91 71 58 38 cb 20 11 bb 3d 0f 94 bb
       -0.0010938217 5.160418e-05 -0.002214479 -0.004518418
0001c0 b7 05 f6 bb 89 71 47 bb ed 21 a0 ba dd fc 41 3c
       -0.0075080055 -0.0030432662 -0.0012217142 0.011840072
0001d0 55 b0 44 ba 01 2c 7d 3a 66 45 fa ba ae 8d 04 bb
       -0.0007503082 0.0009657741 -0.0019094169 -0.002022605
0001e0 7c 5d fd bb 89 34 8f 3d 2e 5b 9f 3c a1 53 06 bd
       -0.0077320915 0.06992442 0.019452658 -0.0327946
0001f0 92 b6 41 3d f0 16 7d 3b cd ab 33 3d 45 59 9b 3d
       0.047293253 0.0038618408 0.043865014 0.07585386
000200 a6 1c af bd 7e b5 3e bb d5 d1 57 bd b1 9c 26 3a
       -0.08550386 -0.0029099877 -0.052690346 0.00063557463
000210 89 d8 35 bc 59 e3 15 bd 00 83 63 3b fa 56 33 3c
       -0.011098989 -0.03659377 0.0034715533 0.01094603
000220 49 a3 b5 3b c3 c9 86 3b ab 50 ac bd 13 55 34 3b
       0.0055431467 0.0041134073 -0.08413824 0.0027516528
000230 eb be c6 ba ef 10 a4 bd 6c 8f 05 3b 4c 55 f1 ba
       -0.0015163099 -0.08011042 0.0020379676 -0.0018412261
000240 ea 22 d7 39 12 a0 8e 3c d3 32 30 3a 5f 0a 2b 3a
       0.0004103401 0.017410312 0.00067214406 0.0006524678
000250 2a 4f ce 39 e2 34 d2 ba c2 23 b7 ba 3c 23 ae ba
       0.00039350364 -0.0016037489 -0.0013972449 -0.0013285647
000260 5a e7 16 ba 86 1b 22 ba be 08 63 3d c0 f7 a1 b9
       -0.000575652 -0.0006183911 0.05542826 -0.000308929
000270 a6 7e e4 b9 56 e5 b4 3b 22 42 5d bb b0 b7 7c bb
       -0.0004358191 0.005520503 -0.0033761342 -0.0038561635
000280 8e 99 ee 3a d9 6c 23 3d 5d a2 a7 bc f0 b6 82 b9
       0.0018203722 0.039898727 -0.020463163 -0.0002493183
000290 b8 ba 0a bb f5 19 1c 3b 21 d0 81 bb d0 e1 17 3c
       -0.0021168422 0.0023819183 -0.0039615785 0.0092701465
0002a0 a4 d7 71 bd 7e a5 cb 3d a6 86 89 bd 8d 36 84 3a
       -0.05904354 0.099436745 -0.06715135 0.0010087058
0002b0 d1 d6 32 ba f0 09 85 3c db a5 3e 3b 97 24 fa ba
       -0.0006822171 0.01624009 0.0029090557 -0.0019084391
0002c0 95 fe b0 3c f4 cf 77 ba 82 04 92 b9 86 ab a2 3d
       0.02160577 -0.00094532897 -0.0002785065 0.07942872
0002d0 d2 b8 3b ba e2 aa 95 ba aa e2 b4 3d 04 13 b2 3c
       -0.0007161024 -0.0011418725 0.08832295 0.021737583
0002e0 1f f0 9d bd 1d a3 af 3c 3d fb b9 3a 97 c8 19 bb
       -0.07711815 0.021440083 0.0014189255 -0.0023465508
0002f0 92 66 ae ba 59 d7 c1 3a cd ab 02 3b 62 91 eb ba
       -0.0013305715 0.001478891 0.0019938827 -0.0017972405
000300 fa d8 e7 b9 5e 76 8c 3a 6e 03 a3 39 e9 3c 95 3a
       -0.00044221414 0.0010716429 0.00031092338 0.001138595
000310 eb 5f 15 bb cf 40 af bb 62 84 96 3a 9d c2 90 3d
       -0.0022792767 -0.005348302 0.0011483545 0.070683695
000320 d5 9d 4f 3d f6 9b 4e b8 e7 34 50 3a c0 1e 65 ba
       0.05068763 -4.9259477e-05 0.00079424534 -0.0008740239
000330 16 a1 91 ba 8e f3 8b 39 3b cf 03 ba b3 4b 26 bb
       -0.001111063 0.00026693608 -0.0005028133 -0.002537471
000340 e9 77 01 3b 8d d5 a0 3b 3f f8 92 3a 8d 62 52 bb
       0.001975531 0.0049082697 0.0011212899 -0.0032102198
000350 d0 7b 5f bb 12 b5 be 39 46 d9 00 bb 70 57 e6 bc
       -0.0034100898 0.00036374532 -0.0019660755 -0.028117865
000360 b7 14 06 bb 8d d8 bf 3a 15 42 9e b8 1f d3 5c bb
       -0.0020459124 0.0014636681 -7.546336e-05 -0.0033695174
000370 37 48 ff bc 31 19 c0 3d d2 29 8c bd 79 b4 2e bd
       -0.031162364 0.09379805 -0.06843914 -0.04265258
000380 a5 2e a8 3b b7 f9 00 3b 80 97 77 3d d5 60 8a bd
       0.0051325136 0.0019680092 0.060447216 -0.067567505
000390 4e 39 ab 3b 03 83 35 ba 63 fa af bd 18 51 92 ba
       0.005225337 -0.00069241243 -0.08592679 -0.0011163084
0003a0 28 d4 26 bd 67 f6 47 3d 64 2f 11 b8 dc 4c a2 bd
       -0.04072967 0.048818972 -3.461483e-05 -0.07924816
0003b0 c4 b1 94 b9 8f e1 e6 3a 2b b6 d1 3d 86 0c 3c 3b
       -0.00028361205 0.0017614829 0.10239824 0.0028693988
0003c0 16 fb e6 ba 1b 61 c2 3d 22 27 25 3b 9d 0e 41 3a
       -0.0017622437 0.09491178 0.0025200327 0.0007364543
0003d0 04 e3 fc b9 4c 6a 58 bb 45 bb 8a 3a 66 ad 5f 39
       -0.00048234325 -0.0033022342 0.0010584375 0.00021331533
0003e0 ee 45 38 ba eb 44 82 3b 4a ab ec 3a ee ef 73 39
       -0.00070294633 0.003975501 0.0018056419 0.00023263667
0003f0 38 be dd ba 69 a1 ac 3a 87 9d a9 bd e5 a4 9d bb
       -0.0016917652 0.0013170663 -0.08281999 -0.0048109167

fc2.bias f4 [784]
000000 bd da 49 ba b6 ad 01 3b 85 bc a5 ba bd 71 71 3a
       -0.0007700136 0.0019787378 -0.0012644684 0.0009210369
000010 58 de 8d b9 fe 61 d3 ba ef 6d ad b9 79 92 95 ba
       -0.00027059275 -0.0016127226 -0.00033079038 -0.001141145
000020 60 16 6a bb 3a d6 e0 b9 e4 4d 83 38 96 bb 1e 3b
       -0.0035718903 -0.0004288422 6.261075e-05 0.0024220697
000030 de 20 7b bc 7c fc 7c bc 6f a5 3f bb 4b 5a 32 3b
       -0.01532766 -0.015441056 -0.0029242893 0.0027214463
000040 23 f3 9e bb cd 49 6f bb 8c 08 0c 3a 27 f0 a3 bb
       -0.0048507615 -0.0036512495 0.000534185 -0.0050029936
000050 6f 7e 49 3b 44 1b 1c 3b 94 d6 b0 37 f7 94 6f 3a
       0.0030745526 0.0023819963 2.1080756e-05 0.0009139324
000060 55 c4 bf ba 21 d6 53 bb 5a 93 3f ba 58 c9 cb b9
       -0.0014630655 -0.0032323676 -0.0007308029 -0.0003886919
000070 ce fe b4 b9 8d cc 7a 3b fe c0 26 bc e1 5a 1a 3b
       -0.0003452212 0.0038268894 -0.010177849 0.0023552703
000080 19 6e ce 3a 68 46 b5 39 04 81 4e bb 51 38 06 bb
       0.0015749364 0.00034575467 -0.0031510005 -0.0020480345
000090 08 0e 87 3a bc 58 49 3b bb 50 16 3a 2f 71 f7 3b
       0.0010303864 0.0030723056 0.00057340757 0.0075513343
0000a0 60 49 ea bb e7 ac 86 3b 29 cc 05 bb fe e1 65 bb
       -0.0071498603 0.004109967 -0.0020415878 -0.0035077329
0000b0 b9 89 52 bb b3 ea 75 3a 68 7d 94 ba dd 2b 5e 3b
       -0.0032125546 0.0009380981 -0.0011328878 0.0033900656
0000c0 7e 78 a9 3b f9 90 c3 ba 5a 3e 46 ba 2f ea 66 3a
       0.0051718345 -0.0014920525 -0.00075623917 0.00088087
0000d0 61 6e a5 ba d0 6f b8 3b cd df 17 bb 6a 99 64 bb
       -0.0012621396 0.0056285635 -0.0023174167 -0.003488148
0000e0 ce 55 98 38 e2 5d 2b 3a 5d e1 f9 b9 27 21 d6 ba
       7.263907e-05 0.0006537122 -0.0004766089 -0.0016336784
0000f0 e0 33 02 3b 33 ba 38 bc 76 96 90 ba 25 be 76 3b
       0.0019867346 -0.011274862 -0.0011031169 0.0037649956
000100 33 46 29 3b 08 b4 43 bb e5 3a e0 b7 84 b0 13 3c
       0.0025829196 -0.0029861946 -2.6730306e-05 0.009014253
000110 df cc 40 3c bb 32 0b 3c da dc df 39 41 e9 09 bc
       0.011767595 0.008495982 0.00042698422 -0.0084174285
000120 3d 40 9e 3c 26 e8 ce 3b 22 ef 79 3c 62 c4 8c 3c
       0.01931774 0.0063142953 0.015254768 0.017183486
000130 7c 34 a8 3b cb db 0f 3b 5a 1d 95 39 15 20 66 ba
       0.0051332098 0.0021951075 0.00028441363 -0.00087785843
000140 66 ad 0a 3b 22 b4 88 bb bb bf 17 bb e7 79 10 b9
       0.0021160482 -0.004171864 -0.0023155052 -0.00013778322
000150 29 49 b2 3b 6e 3d d9 ba c7 b8 cc 3a e2 53 30 3b
       0.0054408503 -0.0016574094 0.0015619033 0.0026905467
000160 e1 d1 4e 3b d7 16 a4 ba 14 be 82 3a ac 55 f9 b6
       0.0031558203 -0.0012519014 0.0009974861 -7.430752e-06
000170 07 0d bc ba 54 83 fa ba 6a 5e c3 3b e5 61 97 3c
       -0.0014347144 -0.0019112625 0.005962183 0.018479297
000180 f8 42 a4 3a 0e 24 cc 3b e8 74 4d 3c b0 f7 3b 3c
       0.0012532165 0.006229884 0.01254008 0.0114726275
000190 cf e5 e7 3c 84 aa 20 3d e6 73 24 3d ca 88 89 3c
       0.028307823 0.039225116 0.040149592 0.016788859
0001a0 78 bb b2 3b f5 8d 4e 3a 50 76 b5 3b d3 34 4b 39
       0.005454477 0.00078794296 0.0055377856 0.00019379267
0001b0 f5 b0 da ba 25 e1 87 ba b8 e4 fd 3b 7c 8c 28 3a
       -0.0016684817 -0.0010366781 0.0077482127 0.0006429625
0001c0 00 6d fc 39 77 74 16 3a c8 34 b9 bb 68 03 3e 3b
       0.00048146397 0.00057394005 -0.005652044 0.002899373
0001d0 3b 53 d9 3b 02 41 cb bb 56 a0 4b 3b b4 0a 11 3c
       0.0066322363 -0.006202818 0.003107091 0.0088526495
0001e0 91 0c 5d ba 44 9c 86 bc 5f 58 9c 3c 3a 34 93 3c
       -0.00084323535 -0.016431935 0.019085107 0.01796924
0001f0 b8 ce 49 3d 6d ff bf 3c ff 6a 74 3c 45 f8 f9 3c
       0.049269408 0.023437226 0.014918088 0.030513892
000200 48 d6 1f 3d 6b bd 2a 3d 66 a9 60 3d ba 5c cc 3c
       0.039022714 0.04168455 0.05484905 0.02494656
000210 38 c3 dc 3c fb 17 c4 3c c2 7b 6d 3c de bb 89 3c
       0.026948556 0.023937216 0.014494838 0.016813215
000220 0f ab 3b 3b fa f7 59 3a b2 65 27 bb cc 2d b7 ba
       0.0028635894 0.00083148445 -0.0025542793 -0.001397544
000230 48 a8 35 bb 22 0c 38 bb 1d 2d 90 39 fd f9 39 bb
       -0.0027718712 -0.0028083404 0.00027499432 -0.0028377764
000240 a5 6c 02 bb 1c f2 64 3b 2a 4f a8 3b c4 f1 b6 bb
       -0.0019901183 0.0034934347 0.00513639 -0.00558302
000250 c0 1b f2 bc 56 97 42 bb 56 16 02 3c 8c 9d 0e 3d
       -0.029554248 -0.0029692254 0.007939896 0.034818217
000260 d2 46 07 3d 58 28 13 bc 85 a7 64 bc 98 d5 86 3c
       0.033026524 -0.008981787 -0.013955955 0.016459271
000270 5a 27 0b 3d c3 94 66 3d db 3c fc 3b ee b2 73 3c
       0.033973075 0.056294214 0.007697684 0.014874203
000280 fa 91 e5 3c 84 aa 1b 3d 2b 40 f8 3c ee a2 dc 3c
       0.028023709 0.038004413 0.030304035 0.02693316
000290 52 73 d2 3b 17 a8 3a 3b ca 81 d6 3a bd d1 35 3b
       0.0064224387 0.0028481537 0.0016365584 0.0027743422
0002a0 9a a9 c0 bb 54 9c b7 bb 7a c6 40 3b 1d 94 25 bb
       -0.005879593 -0.0056033526 0.0029415176 -0.0025265284
0002b0 5e 48 33 3b 2f a9 80 bb c6 18 d7 3b a1 21 a1 3a
       0.0027356367 -0.0039264183 0.0065642325 0.0012293347
0002c0 41 73 46 bc 14 cc 86 bc 55 20 4c 3c dd c6 0c bb
       -0.01211244 -0.016454734 0.01245888 -0.0021480836
0002d0 47 6e 05 3c df 42 a8 3c fb ff 28 bb 9a 29 c9 3c
       0.008143968 0.0205397 -0.0025787342 0.02455597
0002e0 98 84 13 3d 77 f6 e3 3a 1a b1 e2 3c 2e 31 6a 3b
       0.036015123 0.0017392178 0.02767234 0.003573488
0002f0 c3 4f d9 bb fa 8e 01 3d 0f aa db 3b 7a ff be 3c
       -0.006631823 0.031630494 0.006703622 0.02331518
000300 f5 db 92 3c d3 94 93 3c 8f ac 86 3b 87 e5 88 3a
       0.01792715 0.0180153 0.004109926 0.0010444381
000310 43 36 08 3a f7 25 2a bb d0 c3 21 3a 9e 22 60 3b
       0.0005196074 -0.002596257 0.0006170841 0.003420032
000320 bc 38 ef 39 a1 5d 92 b9 85 90 ef ba ba f1 d0 bc
       0.00045627903 -0.0002791705 -0.0018277323 -0.02550589
000330 70 16 c2 bc e2 db 19 bc e2 a5 66 bc c6 ba 93 3b
       -0.02369234 -0.009390803 -0.0140776355 0.004508349
000340 4d 26 ee bc 6f 8d a0 39 04 35 be bb 73 4a 40 3d
       -0.029070998 0.00030622954 -0.00580466 0.046946
000350 2f 22 a2 3c 5b 05 e0 bb 97 2e f0 3c 71 47 0e 3d
       0.01979169 -0.006836576 0.02931909 0.0347361
000360 18 15 dd bc da f8 e8 ba 13 ae 1d bc 30 aa 74 3c
       -0.026987597 -0.0017774359 -0.009624022 0.014933154
000370 f6 99 93 3c f0 74 3c 3c 9f 00 20 3c 54 cd 97 3a
       0.01801775 0.011502489 0.009765773 0.0011581578
000380 55 71 f5 ba b6 49 01 3b d0 40 ad b9 12 20 7d 3c
       -0.0018725792 0.0019727773 -0.0003304542 0.015449541
000390 25 52 d7 3b 2e 11 e6 bb ec 7a f3 bc 67 c7 06 bd
       0.0065710717 -0.007021091 -0.0297217 -0.03290501
0003a0 2e 0b 83 bc b3 f4 f3 bc 3e f5 bb 3c ad 82 c3 bc
       -0.015996542 -0.029779768 0.022944089 -0.023866022
0003b0 3c 0f b1 bc e5 a9 b7 3a 47 dc c1 3c 2b 15 dd ba
       -0.02161371 0.0014012425 0.023664607 -0.001686727
0003c0 5a 31 fd bc a6 6c 0b bd c4 2b 97 3c ef b0 a1 3c
       -0.030907322 -0.034039162 0.018453486 0.019737689
0003d0 f9 7a 73 3c e8 a7 4b bc 9b f5 36 bc a7 18 ca 3a
       0.014860862 -0.012430169 -0.011166955 0.0015418724
0003e0 77 8d 07 3c 20 32 37 3c b3 23 f2 3a 0f f9 13 bb
       0.008273474 0.011181384 0.0018473774 -0.002257887
0003f0 79 07 ee 3b 2e 8d 08 3a 83 08 0e 3a c8 22 82 3b
       0.0072640744 0.00052090257 0.00054181385 0.0039714314
