Resnet-MNIST/resnet.ckpt (torch_old, 801084 bytes, 77 tensors)

conv.weight f4 [16, 1, 3, 3]
0.12307009 -0.10667228 -0.017745033 -0.19909494 0.24286717 -0.012496705 -0.20935193 -0.31224233
0.4088011 -0.018560153 -0.09373098 0.07080756 -0.05775841 -0.31999677 -0.004829387 -0.28556395
0.05052297 0.1745843 -0.35159165 -0.29260877 -0.1394265 0.2844971 0.06844149 -0.33456647
0.14448366 0.3171142 -0.276547 0.15972158 -0.34081346 -0.17932205 0.11980133 -0.20769753
0.07844466 0.13823296 0.29271653 0.05589175 -0.09217062 -0.19219962 0.2651837 0.051262666
-0.02654877 0.14203693 0.25137013 0.06372277 -0.16037078 0.2764358 0.14543486 -0.2681446
-0.13833375 -0.048106648 -0.25025582 0.25194278 -0.23742242 -0.2310499 0.14429267 0.28667662
-0.31839848 -0.0510684 -0.08927083 0.049599588 0.24108906 0.28721288 -0.31502146 -0.020871164
0.13424064 0.062910505 0.22169699 0.048251048 0.2639231 -0.07681989 -0.09325137 -0.2686334
0.0938269 0.2634012 0.14929904 0.141868 0.44678077 0.23577704 0.12645885 -0.19292963
0.19474216 0.033488985 0.02031287 -0.28779653 0.06343191 -0.22704288 -0.15256552 -0.325923
-0.25024772 0.1927728 0.25948668 -0.17960557 0.12048179 -0.25530684 -0.28142855 0.28162906
-0.0019667312 -0.097038604 0.3017529 0.24106176 0.032363072 0.3297237 -0.28867516 0.0700535
-0.04590535 0.10965562 -0.20213747 -0.23533851 0.045568563 -0.27528656 0.11968216 0.053054914
-0.06098801 -0.08639762 0.08184769 -0.20920423 -0.13109358 -0.106603 -0.037147306 0.0056565376
-0.27979982 0.30963057 0.09386567 0.26436022 -0.06520801 -0.16163759 0.0950998 -0.121944055
0.07807795 0.21796925 -0.027693814 -0.017075391 0.22616614 0.3904122 0.39766687 -0.08565825
0.090280384 0.28212965 0.09593089 -0.21730927 0.34360936 -0.21157661 -0.16000314 -0.1271141
00000000: 2c0c fc3d ff76 dabd 085e 91bc 8bdf 4bbe
00000010: 2cb2 783e fbbe 4cbc 5a60 56be 3ade 9fbe
00000020: 614e d13e 760b 98bc 07f6 bfbd 8e03 913d
00000030: 1594 6cbd 9ed6 a3be d63f 9ebb 7035 92be
00000040: 2cf1 4e3d 3ac6 323e d203 b4be d1d0 95be
00000050: d2c5 0ebe 9ba9 913e 0d2b 8c3d 4c4c abbe
00000060: 86f3 133e cb5c a23e 9297 8dbe 0e8e 233e
00000070: 1a7f aebe 33a0 37be 665a f53d a9ae 54be
00000080: 98a7 a03d f18c 0d3e f1de 953e bfee 643d
00000090: f3c3 bcbd facf 44be 28c6 873e cdf8 513d
000000a0: ce7c d9bc 2172 113e 96b3 803e 1581 823d
000000b0: 3d38 24be fe88 8d3e e0ec 143e 404a 89be
000000c0: 5da7 0dbe 7a0b 45bd 8821 80be a5fe 803e
000000d0: dd1e 73be 5898 6cbe 75c1 133e 47c7 923e
000000e0: 2005 a3be 192d 51bd a0d3 b6bd f028 4b3d
000000f0: 0de0 763e 910d 933e 7e4a a1be 01fa aabc
00000100: 6176 093e 39d7 803d 8904 633e e4a2 453d
00000110: ee20 873e bf53 9dbd 93fa bebd 518a 89be
00000120: 5128 c03d 86dc 863e d9e1 183e d845 113e
00000130: 73c0 e43e 896f 713e 6e7e 013e 588f 45be
00000140: 7d6a 473e bf2b 093d 2d67 a63c 115a 93be
00000150: 97e8 813d ee7d 68be 233a 1cbe 61df a6be
00000160: 7820 80be 3c66 453e 70db 843e 86ea 37be
00000170: 28bf f63d 94b7 82be 6717 90be af31 903e
00000180: 46e4 00bb 2dbc c6bd 5b7f 9a3e e5d8 763e
00000190: 248f 043d 8bd1 a83e 3bcd 93be 3678 8f3d
000001a0: 4007 3cbd 2093 e03d 20fd 4ebe 94fc 70be
000001b0: 1aa6 3a3d 5cf2 8cbe ec1b f53d 1c50 593d
000001c0: 90ce 79bd 3cf1 b0bd c39f a73d a239 56be
000001d0: 653d 06be ac52 dabd c627 18bd 7a5a b93b
000001e0: ec41 8fbe e687 9e3e a53c c03d 395a 873e
000001f0: c78b 85bd 5384 25be afc3 c23d cebd f9bd
00000200: 55e7 9f3d 5533 5f3e 23de e2bc b1e1 8bbc
00000210: 1998 673e 1ce4 c73e fe9a cb3e 986d afbd
00000220: ece4 b83d 4c73 903e 6a77 c43d 5286 5ebe
00000230: 91ed af3e 8aa7 58be ddd7 23be 332a 02be

bn.weight f4 [16]
1.0005852 1.0207305 1.184576 0.96490824 0.8242849 0.9713072 0.85214615 0.83837986
0.7950811 1.0628953 0.9549998 0.8964022 1.0222389 0.9842463 0.8039983 1.0420992
00000000: 2d13 803f 4ca7 823f 30a0 973f 3a04 773f
00000010: 5604 533f 97a7 783f 4026 5a3f 10a0 563f
00000020: 6f8a 4b3f f40c 883f de7a 743f 9d7a 653f
00000030: b9d8 823f 91f7 7b3f d5d2 4d3f 8263 853f

bn.bias f4 [16]
-0.125981 0.019425437 0.02299991 0.024867145 -0.16116093 0.1469956 -0.04193428 -0.1480055
-0.12509695 0.03273175 0.13545373 -0.04607466 0.0014172462 -0.14539193 -0.19519992 0.128068
00000000: 2a01 01be 1822 9f3c 4f6a bc3c 2fb6 cb3c
00000010: 5f07 25be 0486 163e 48c3 2bbd c18e 17be
00000020: 6a19 00be ba11 063d 62b4 0a3e c8b8 3cbd
00000030: e4c2 b93a 9fe1 14be 7de2 47be 4224 033e

bn.running_mean f4 [16]
-0.01169669 -0.06038536 -0.074417755 0.01535544 0.038589664 -0.06327577 0.030891594 0.03447546
0.18796681 -0.11706098 0.01851589 0.0022214854 -0.057192493 0.0034024802 0.15924567 -0.0007200506
00000000: 79a3 3fbc a456 77bd 5668 98bd 6295 7b3c
00000010: 3210 1e3d ba96 81bd 5e10 fd3c 2436 0d3d
00000020: 5f7a 403e abbd efbd a3ae 973c 5796 113b
00000030: ad42 6abd 25fc 5e3b 4c11 233e c7c1 3cba

bn.running_var f4 [16]
0.012356728 0.02643584 0.043479875 0.01630491 0.011245198 0.044554513 0.019400774 0.015165689
0.1465617 0.06543917 0.016194446 0.015149721 0.01712024 0.0054083024 0.10454766 0.01651844
00000000: e073 4a3c fa8f d83c f417 323d e091 853c
00000010: c73d 383c cb7e 363d 5fee 9e3c 8379 783c
00000020: 4514 163e f904 863d 37aa 843c 8936 783c
00000030: bf3f 8c3c 2138 b13b 151d d63d ae51 873c

layer1.0.conv1.weight f4 [16, 16, 3, 3]
-0.09628121 -0.087648265 0.009113121 -0.0747388 0.0330845 0.20679928 0.10440996 0.07787927
0.15440618 -0.10008616 -0.090889744 -0.032173403 -0.10086249 0.016084792 0.097921506 0.038742535
0.0112411 0.083304524 -0.11651743 -0.08831839 0.028808624 -0.062128395 -0.05071824 -0.095442586
-0.086083844 -0.005959325 -0.12423404 0.07149225 -0.0038402677 0.16088657 -0.06404491 0.0071371878
-0.02362848 0.010694923 -0.13388127 -0.07552534 -0.02841453 -0.054119952 0.010504655 0.039950103
0.055196833 0.0073993397 -0.046300862 -0.046689354 0.07041236 -0.026778791 0.085407786 0.04016647
-0.029103855 -0.035609268 0.06855132 -0.071432285 0.011964443 0.10157557 0.0652867 0.036553387
0.06585673 -0.11363137 -0.06130742 0.021291528 -0.15386066 -0.045582917 0.022567699 0.061416198
0.034969002 0.008924197 -0.02778139 0.040756762 0.065346204 0.07742324 0.057150833 0.045439485
0.0688158 0.049892668 -0.02397779 0.05766277 0.0944183 0.017992763 0.053098958 -0.032153063
0.002393271 -0.10791972 -0.06974133 -0.017184334 -0.0019898908 0.035192452 0.11151123 0.0026887066
0.030228037 -0.061619394 -0.033984467 0.07961701 -0.11034753 0.022990486 -0.056454103 0.096189305
0.09569904 0.109032616 0.232981 -0.008422268 -0.0586446 -0.09474365 -0.07722541 -0.032913193
-0.13979632 -0.034499347 -0.0037678338 -0.020395137 -0.07008319 0.06172672 0.19462438 0.053644367
-0.03238192 -0.054029055 0.00595324 0.04547235 0.11147872 0.045882512 -0.11318105 -0.05570736
0.0743404 0.023530249 -0.1269897 0.07382887 0.05226167 -0.057442546 0.03762039 0.040577814
-0.032672167 0.0040319664 -0.049927842 0.033323698 0.035583034 0.021000454 0.083613224 -0.019314699
0.07722241 -0.099089555 0.047195986 0.023482818 -0.09958131 -0.026603173 0.03224535 -0.067131236
-0.051050168 0.14302611 0.06389937 -0.07441393 -0.04299666 0.06549981 -0.03345381 -0.08211665
-0.06680321 0.17785841 0.06756238 0.10470448 0.07874917 0.04744204 0.03856946 0.1419467
0.07755024 -0.0078035276 0.070687234 0.0057124076 -0.038549777 -0.024653224 0.036080573 -0.09118402
0.13059174 0.06751949 0.13000429 -0.00076071615 -0.07536088 -0.15400319 0.03164048 -0.029501593
-0.16125475 -0.09651985 -0.03878275 -0.12115753 -0.017258527 -0.05094983 -0.068523064 0.08204129
0.043596808 -0.065085195 -0.086294256 0.13040754 -0.004358213 0.15042838 0.105274245 -0.12552458
0.09501239 -0.024362523 -0.13273154 0.0510824 0.0038331412 -0.18739723 -0.0940132 -0.05719317
-0.03680816 -0.033129655 -0.0572126 -0.044812754 -0.1545983 -0.1338793 -0.06614759 0.026912466
-0.11730684 0.017128337 -0.10138713 0.07085025 -0.037296236 -0.09096205 -0.05607346 0.024395945
-0.025318023 0.036447834 0.037914056 -0.09835929 -0.042825803 -0.010753104 -0.13050172 0.04113469
0.07915167 0.15378761 0.06348852 0.13265876 0.072316095 0.099431954 0.0069475616 0.1250566
0.20890053 0.08208687 0.10274161 0.14878419 0.09678805 -0.047848985 0.09325162 -0.020043815
0.030821953 0.0038379754 0.06024214 0.07194722 -0.10776839 -0.06079837 -0.076197736 0.03368086
0.020735482 -0.0689418 -0.036514733 0.095167935 0.14357492 0.10462819 0.08418302 0.17932007
00000000: 152f c5bd ef80 b3bd 334f 153c a810 99bd
00000010: 9d83 073d 31c3 533e e4d4 d53d 2b7f 9f3d
00000020: a71c 1e3e f9f9 ccbd 6724 babd 42c8 03bd
00000030: fe90 cebd 41c4 833c 128b c83d 7eb0 1e3d
00000040: 972c 383c 909b aa3d b1a0 eebd 46e0 b4bd
00000050: 1000 ec3c 587a 7ebd eebd 4fbd 6777 c3bd
00000060: ba4c b0bd 7146 c3bb 6b6e febd 876a 923d
00000070: 00ad 7bbb 73bf 243e fa29 83bd 12df e93b
00000080: 8490 c1bc c239 2f3c 2c18 09be 08ad 9abd
00000090: 97c5 e8bc e2ac 5dbd b71b 2c3c b8a2 233d
000000a0: 1316 623d 2976 f23b f9a5 3dbd 563d 3fbd
000000b0: 5b34 903d 325f dbbc 47ea ae3d 9985 243d
000000c0: 356b eebc 06db 11bd a264 8c3d 174b 92bd
000000d0: 8306 443c da06 d03d 09b5 853d 01b9 153d
000000e0: e5df 863d 90b7 e8bd 7d1d 7bbd 926b ae3c
000000f0: a68d 1dbe 27b5 3abd e5df b83c 8d8f 7b3d
00000100: a83b 0f3d cc36 123c cc95 e3bc 90f0 263d
00000110: 3bd4 853d 1390 9e3d fe16 6a3d c11e 3a3d
00000120: 4cef 8c3d 415c 4c3d 126d c4bc cc2f 6c3d
00000130: 625e c13d 8f65 933c 4b7e 593d eeb2 03bd
00000140: 6dd8 1c3b 0405 ddbd 8bd4 8ebd 29c6 8cbc
00000150: d468 02bb f625 103d 0060 e43d 0335 303b
00000160: caa0 f73c 9e64 7cbd 4c33 0bbd 3e0e a33d
00000170: e3fd e1bd 8b56 bc3c 6b3c 67bd e6fe c43d
00000180: dcfd c33d 7e4c df3d 9292 6e3e 8dfd 09bc
00000190: 5235 70bd f508 c2bd 5b28 9ebd fccf 06bd
000001a0: c426 0fbe 304f 0dbd c3ed 76bb b413 a7bc
000001b0: c787 8fbd 28d5 7c3d 9d4b 473e 32ba 5b3d
000001c0: e7a2 04bd 924d 5dbd 6613 c33b 3741 3a3d
000001d0: f54e e43d 4def 3b3d 77cb e7bd 672d 64bd
000001e0: c83f 983d 82c2 c03c 9709 02be 9733 973d
000001f0: 5510 563d e048 6bbd d717 1a3d ec34 263d
00000200: 40d3 05bd 961e 843b 2381 4cbd 6e7e 083d
00000210: 84bf 113d 2509 ac3c 693d ab3d dc39 9ebc
00000220: c826 9e3d 77ef cabd 9450 413d 0a5f c03c
00000230: 49f1 cbbd e6ee d9bc b313 043d 1a7c 89bd
00000240: fb19 51bd 7075 123e acdd 823d 5566 98bd
00000250: 441d 30bd c424 863d dd06 09bd c62c a8bd
00000260: 1fd0 88bd 8420 363e 255e 8a3d 4d6f d63d
00000270: 3f47 a13d 9652 423d 03fb 1d3d 7a5a 113e
00000280: a9d2 9e3d bcb4 ffbb 78c4 903d 262f bb3b
00000290: 5fe6 1dbd 8ff5 c9bc 39c9 133d b0be babd
000002a0: d7b9 053e a947 8a3d d81f 053e cc6a 47ba
000002b0: ce56 9abd 03b3 1dbe 7399 013d 53ad f1bc
000002c0: f71f 25be 33ac c5bd a9da 1ebd 7021 f8bd
000002d0: c161 8dbc c5b0 50bd d255 8cbd 4405 a83d
000002e0: 9192 323d 634b 85bd 0bbb b0bd 8e89 053e
000002f0: 57cf 8ebb e609 1a3e 069a d73d 8489 00be
00000300: db95 c23d ea93 c7bc c7ea 07be c73b 513d
00000310: 7035 7b3b 0fe5 3fbe fe89 c0bd 6343 6abd
00000320: 27c4 16bd f6b2 07bd c257 6abd 948d 37bd
00000330: 044f 1ebe a817 09be 6378 87bd 8877 dc3c
00000340: 923e f0bd ba50 8c3c 0ea4 cfbd f019 913d
00000350: f0c3 18bd 504a babd 49ad 65bd 01da c73c
00000360: be67 cfbc 534a 153d c54b 1b3d 9870 c9bd
00000370: 1c6a 2fbd ca2d 30bc 3ea2 05be d97c 283d
00000380: 451a a23d 807a 1d3e 4506 823d b3d7 073e
00000390: 761a 943d fba2 cb3d 5fa8 e33b d60e 003e
000003a0: 05ea 553e 291d a83d 316a d23d e25a 183e
000003b0: d038 c63d 4cfd 43bd b5fa be3d ed32 a4bc
000003c0: 527e fc3c 8b86 7b3b 76c0 763d 1059 933d
000003d0: acb5 dcbd b607 79bd 8f0d 9cbd f1f4 093d
000003e0: 75dd a93c 5c31 8dbd 7990 15bd 68e7 c23d
000003f0: 4e05 133e 4e47 d63d 2668 ac3d ae9f 373e

layer1.0.bn1.weight f4 [16]
0.93969727 1.0472593 0.97437465 1.0187356 1.034902 1.0945905 1.1208136 0.95418394
0.9822995 1.0032364 1.0945978 1.0155115 0.9968119 0.7616543 1.0655038 0.9668808
00000000: 0090 703f 980c 863f 9e70 793f ee65 823f
00000010: ab77 843f 8b1b 8c3f d276 8f3f 6645 743f
00000020: fb77 7b3f 0d6a 803f c81b 8c3f 48fc 813f
00000030: 112f 7f3f c7fb 423f 6e62 883f 8085 773f

layer1.0.bn1.bias f4 [16]
-0.082628556 0.018757453 -0.13836391 -0.07419572 0.079249956 0.18130173 -0.00025099164 -0.06661838
-0.022052469 -0.038563866 0.0014718367 0.027662406 -0.06771896 -0.17561522 0.021171745 -0.12880017
00000000: 2939 a9bd 3ba9 993c 45af 0dbe edf3 97bd
00000010: cd4d a23d 29a7 393e 8797 83b9 386f 88bd
00000020: 61a7 b4bc 25f5 1dbd a5ea c03a 459c e23c
00000030: 3db0 8abd 7ad4 33be 5e70 ad3c 31e4 03be

layer1.0.bn1.running_mean f4 [16]
0.058913484 0.72396886 -0.561718 0.5738848 0.45018235 0.91211987 -1.6359016 -0.15989684
0.5426969 -0.98830515 0.25834545 -0.88021487 -0.5001363 -0.021015197 -0.6714753 -0.5832995
00000000: 444f 713d 0656 393f c0cc 0fbf 1dea 123f
00000010: 4d7e e63e b080 693f 3965 d1bf ffbb 23be
00000020: 2fee 0a3f 9101 7dbf db45 843e c355 61bf
00000030: ef08 00bf 1028 acbc cee5 2bbf 1e53 15bf

layer1.0.bn1.running_var f4 [16]
0.485313 1.925552 0.6844021 1.4078425 1.4796413 1.4207826 0.26352054 0.9275553
1.1865835 0.75376695 1.0722995 0.5545003 0.32306188 0.5237838 0.7173336 0.35103858
00000000: f27a f83e 7d78 f63f fa34 2f3f 2f34 b43f
00000010: e364 bd3f 34dc b53f 2aec 863e 4474 6d3f
00000020: f8e1 973f dff6 403f 1c41 893f bbf3 0d3f
00000030: 5e68 a53e b216 063f 2da3 373f 54bb b33e

layer1.0.conv2.weight f4 [16, 16, 3, 3]
-0.0631513 0.068039 -0.034211554 0.007690096 0.036484294 -0.0015501722 0.02559822 -0.055769507
-0.009921601 0.08406895 -0.0061672213 -0.089157626 -0.0505901 0.06386818 -0.16375837 0.13479945
0.1257855 0.119134136 0.016315093 -0.11243081 0.026153414 0.021922523 -0.0470152 0.122421816
0.009996136 -0.04747972 0.08707099 0.021353913 0.004093704 -0.020966653 0.07678302 0.042850036
0.0009457069 -0.030738037 -0.058017895 -0.08911569 -0.06629069 -0.045397997 -0.022102857 0.020212913
0.07269862 0.010804766 -0.055896632 0.019906621 0.042165946 0.12883028 -0.05842073 -0.06888635
-0.026356502 -0.0108517 -0.036515895 -0.026149668 -0.019719621 -0.062439535 -0.21610127 0.09416975
0.063505866 0.0022993342 0.07474513 0.12819517 -0.09858528 -0.19612749 -0.025052028 -0.0017797604
-0.0040690363 -0.05574705 0.0041741715 -0.04399252 -0.1018375 0.057635225 0.054572556 -0.017923603
0.028995167 -0.054368056 -0.006689901 -0.105491824 -0.048515316 -0.1391375 0.0009841057 0.050066598
0.047085367 -0.14094064 0.054485276 0.05437291 -0.15848356 0.07634931 0.11791332 -0.09953371
0.033968925 -0.046648234 -0.09459066 0.005996104 0.100719124 -0.060874514 -0.0839333 -0.13732523
-0.14274068 -0.1303214 -0.14120536 -0.001375551 0.023832489 0.03129805 -0.07163869 0.14228469
0.040176596 -0.08015973 -0.15178338 -0.017551158 -0.11783843 -0.03680554 -0.03356548 0.02607021
0.038378883 0.06192475 0.082205854 0.17280382 0.18394783 -0.056629084 -0.06037777 0.02423256
-0.033209432 -0.05593108 0.052603956 0.0018173271 0.06974356 0.08462266 -0.12752195 -0.036167078
0.059348974 -0.11078736 -0.099315554 0.052825004 -0.13771868 -0.06060912 0.08753205 0.034391265
-0.02338299 0.019877275 0.03770176 0.057146057 0.006575953 0.17177828 0.17825411 0.19364715
0.08361709 -0.035437148 -0.018499859 0.006206327 -0.0067815073 -0.049627744 -0.04121022 0.056932
0.09727074 -0.13414516 -0.120571084 0.027193367 0.018575609 -0.12995887 0.045712568 -0.044517808
-0.00038558335 -0.08145392 0.07141421 0.07696534 -0.01990122 0.14729026 0.08843572 -0.05937885
0.11434153 0.04249977 0.022839775 -0.045726903 0.008609078 0.05679585 0.06821503 0.051980764
0.19541064 0.0286297 0.021396907 0.20894414 0.081790864 0.041701823 0.0541181 0.036978077
0.13843687 0.1200102 0.08663744 -0.003908316 0.058539648 0.032722015 0.010129615 0.16547395
-0.052984364 0.04479782 0.19703189 0.034189906 0.07156283 0.14331208 0.1646653 0.087770805
-0.03555965 0.04487165 -0.04795094 0.008248976 0.048324943 -0.10270985 -0.21956888 0.110312596
-0.01856098 0.021611987 0.031012902 -0.05678964 -0.01100387 -0.037072726 -0.058054544 -0.089000985
-0.0022799 -0.089147314 -0.031268794 0.050938793 0.015518162 -0.07033141 -0.019502576 0.029001182
-0.005941158 0.036422644 0.11322974 0.04629482 0.13469978 0.049645413 0.08124527 0.15724075
0.008867767 0.04463209 -0.15069652 -0.08687216 -0.091222174 -0.038865186 0.026279198 0.04149721
-0.021188216 0.016689267 -0.019415502 -0.00042072916 -0.067734234 -0.14706846 0.036567353 -0.09798267
-0.057387054 -0.08761855 0.058387782 0.0011137719 0.036608357 0.051131986 -0.038875766 -0.0009517186
00000000: 7855 81bd 0858 8b3d 6a21 0cbd 33fd fb3b
00000010: 8e70 153d 262f cbba 5cb3 d13c 916e 64bd
00000020: 368e 22bc 572c ac3d 6716 cabb 4698 b6bd
00000030: 9137 4fbd 52cd 823d 46b0 27be de08 0a3e
00000040: eacd 003e 99fc f33d 3ba7 853c 2042 e6bd
00000050: af3f d63c dd96 b33c 0393 40bd 4ab8 fa3d
00000060: d5c6 233c 187a 42bd 4652 b23d 67ee ae3c
00000070: 7a24 863b 42c2 abbc 6a40 9d3d 8583 2f3d
00000080: 51e9 773a 56ce fbbc 2ca4 6dbd 4982 b6bd
00000090: 6ac3 87bd 40f3 39bd 0d11 b5bc 8d95 a53c
000000a0: 04e3 943d 7906 313c def3 64bd 3613 a33c
000000b0: 33b6 2c3d 16ec 033e 934a 6fbd 4914 8dbd
000000c0: 97e9 d7bc 54cb 31bc b191 15bd d437 d6bc
000000d0: 0b8b a1bc 99c0 7fbd a749 5dbe 12dc c03d
000000e0: 5d0f 823d 6db0 163b fa13 993d 9845 033e
000000f0: 14e7 c9bd a5d5 48be e939 cdbc d946 e9ba
00000100: 8d55 85bb 0557 64bd 7dc7 883b 8031 34bd
00000110: 2e90 d0bd ea12 6c3d 7987 5f3d 85d4 92bc
00000120: 4687 ed3c 0ab1 5ebd f536 dbbb 190c d8bd
00000130: ffb7 46bd 107a 0ebe 1cfd 803a a212 4d3d
00000140: 96dc 403d be52 10be f42b 5f3d 21b6 5e3d
00000150: 8449 22be 075d 9c3d 8a7c f13d 54d8 cbbd
00000160: 0023 0b3d 3812 3fbd bfb8 c1bd f77a c43b
00000170: d445 ce3d 8e57 79bd 39e5 abbd fc9e 0cbe
00000180: 9d2a 12be f972 05be 2398 10be d54b b4ba
00000190: 5a3c c33c 6232 003d 4eb7 92bd 14b3 113e
000001a0: 3790 243d c92a a4bd 1a6d 1bbe 72c7 8fbc
000001b0: 4655 f1bd 68c1 16bd f57b 09bd 3191 d53c
000001c0: 2d33 1d3d cfa4 7d3d 8b5b a83d 7cf3 303e
000001d0: d25c 3c3e e6f3 67bd ae4e 77bd 5d83 c63c
000001e0: 9d06 08bd fd17 65bd 3f77 573d 6133 ee3a
000001f0: b6d5 8e3d a54e ad3d 1d95 02be ee23 14bd
00000200: e917 733d 7ce4 e2bd f465 cbbd 085f 583d
00000210: 2006 0dbe 4541 78bd 0144 b33d dbdd 0c3d
00000220: af8d bfbc abd5 a23c 296d 1a3d fc11 6a3d
00000230: 187b d73b a5e6 2f3e 3f88 363e 704b 463e
00000240: 703f ab3d 8b26 11bd 048d 97bc 725e cb3b
00000250: 6837 debb 7646 4bbd 0ccc 28bd 8731 693d
00000260: e235 c73d 595d 09be f9ed f6bd a0c4 de3c
00000270: e02b 983c f013 05be 1a3d 3b3d 4e58 36bd
00000280: 1f28 cab9 50d1 a6bd 9d41 923d 01a0 9d3d
00000290: e207 a3bc 42d3 163e c91d b53d 3d37 73bd
000002a0: e42b ea3d 3d14 2e3d 7b1a bb3c 224c 3bbd
000002b0: 170d 0d3c c4a2 683d 52b4 8b3d c8e9 543d
000002c0: ba19 483e d588 ea3c 9148 af3c 74f5 553e
000002d0: f881 a73d 88cf 2a3d f1aa 5d3d 5376 173d
000002e0: 65c2 0d3e e8c7 f53d f86e b13d 5511 80bb
000002f0: 45c7 6f3d 8507 063d aff6 253c 0172 293e
00000300: 2206 59bd eb7d 373d bac2 493e b70a 0c3d
00000310: 888f 923d 67c0 123e 059e 283e 2ec1 b33d
00000320: ffa6 11bd 56cb 373d 3468 44bd b726 073c
00000330: 60f0 453d 8b59 d2bd aad6 60be 92eb e13d
00000340: 320d 98bc 9f0b b13c c50e fe3c 419c 68bd
00000350: 9349 34bc 92d9 17bd 9aca 6dbd 2646 b6bd
00000360: 606a 15bb de92 b6bd b513 00bd 32a5 503d
00000370: e43f 7e3c ea09 90bd dec3 9fbc e393 ed3c
00000380: 0cae c2bb e92f 153d fee4 e73d a39f 3d3d
00000390: bdee 093e fd58 4b3d ec63 a63d b803 213e
000003a0: 1c4a 113c 23d0 363d 3050 1abe 08ea b1bd
000003b0: b1d2 babd 1a31 1fbd 7947 d73c faf8 293d
000003c0: e992 adbc eeb7 883c 420d 9fbc 5095 dcb9
000003d0: 3fb8 8abd 1d99 16be a6c7 153d 23ab c8bd
000003e0: b00e 6bbd 5b71 b3bd 0728 6f3d fcfb 913a
000003f0: a5f2 153d c66f 513d 323c 1fbd c17c 79ba

layer1.0.bn2.weight f4 [16]
1.0388325 0.8590204 0.9912848 1.0060234 0.9857693 1.0869142 1.0661414 0.96449625
0.8085745 1.1013075 1.00506 1.0909005 1.0676851 1.0513829 1.0428356 1.0931582
00000000: 77f8 843f c3e8 5b3f d7c4 7d3f 60c5 803f
00000010: 605b 7c3f 0120 8b3f 5277 883f 3ae9 763f
00000020: bdfe 4e3f a5f7 8c3f cea5 803f a1a2 8b3f
00000030: e8a9 883f b793 863f a37b 853f 9cec 8b3f

layer1.0.bn2.bias f4 [16]
-0.20616694 -0.0067700543 -0.13997711 -0.053544737 -0.0039764377 -0.012104603 -0.047576003 -0.020330347
-0.09611197 -0.07729295 -0.13905577 -0.16250226 -0.11836507 0.08060371 -0.044177946 -0.09747117
00000000: 6d1d 53be 55d7 ddbb 2956 0fbe ba51 5bbd
00000010: c74c 82bb 6352 46bc 0edf 42bd d48b a6bc
00000020: 5ad6 c4bd c44b 9ebd a364 0ebe fe66 26be
00000030: 6369 f2bd 8f13 a53d eff3 34bd f79e c7bd

layer1.0.bn2.running_mean f4 [16]
-0.32140386 0.41679117 -0.91537046 -0.2510779 -0.13577159 -0.12732342 -0.9636135 0.16833414
-0.06902062 -0.711773 -0.1698167 -1.2044635 -0.8684641 -1.6551454 -0.13188416 -0.19439887
00000000: 0c8f a4be a765 d53e b855 6abf 488d 80be
00000010: b507 0bbe 1261 02be 60af 76bf c95f 2c3e
00000020: af5a 8dbd c136 36bf 6ee4 2dbe dc2b 9abf
00000030: aa53 5ebf cedb d3bf a40c 07be 7f10 47be

layer1.0.bn2.running_var f4 [16]
0.576345 1.3554534 1.4854454 0.47160494 1.7789254 1.6487076 1.1013757 0.773839
0.734056 0.8767731 0.6023643 1.0279999 0.58332324 2.1698167 1.0811447 1.0954112
00000000: 598b 133f 7f7f ad3f 1323 be3f 3476 f13e
00000010: d4b3 e33f da08 d33f e1f9 8c3f 501a 463f
00000020: 18eb 3b3f 3474 603f 8c34 1a3f 8095 833f
00000030: ac54 153f 47de 0a40 f362 8a3f 6f36 8c3f

layer1.1.conv1.weight f4 [16, 16, 3, 3]
-0.03394972 0.02059539 0.015578567 0.020835849 -0.022424301 0.118101835 0.05449995 0.041203514
0.083131894 0.09061303 -0.033835605 0.02790096 -0.019950818 0.038663 -0.1042392 -0.047833253
-0.0839741 -0.03919369 -0.04260742 -0.04554479 -0.18104944 -0.10288904 -0.09702326 -0.012403281
0.0363309 -0.028681947 0.09110024 -0.059727974 -0.012650329 -0.038071364 0.00050358236 -0.02548453
0.03822994 -0.048622746 0.028996982 0.0707284 0.05393341 0.09525885 0.0831073 0.031599887
-0.04695769 0.0053376467 -0.1871338 -0.09989897 -0.05737672 -0.00077343464 0.104756005 0.059585936
0.034301054 0.019970477 -0.058368463 0.1289963 0.0859631 -0.013172152 0.07837502 0.039005943
-0.049533885 -0.05536287 -0.096546456 -0.15101603 -0.110914364 -0.13388428 -0.29804155 0.060703777
0.07963029 0.0030244528 0.046115883 0.060993593 -0.04093499 0.0706702 0.00394421 -0.048030175
-0.051364988 0.0011490176 -0.0102371415 -0.034265026 0.011502832 0.09969899 -0.000115951945 0.035176396
0.045531865 -0.12203425 -0.06849254 -0.12989867 -0.014555952 -0.02678087 -0.039429605 -0.05248584
0.012078103 -0.090212405 0.03849642 0.007536379 0.003266643 -0.0052643386 0.079825975 -0.02288478
-0.06728229 0.069699 -0.012691612 -0.09042364 -0.0047587156 0.04526708 -0.04416629 0.024147157
0.11546542 -0.053933624 0.13280956 0.1520639 -0.006534919 0.020554973 -0.007258189 -0.027584307
-0.0081815375 0.04226795 0.040412944 0.0851128 0.12543635 0.04401476 0.059044033 0.13302253
-0.044008214 0.008505189 0.14027004 0.010903425 -0.054679226 0.008273188 0.02306566 -0.06263769
-0.112262405 -0.039248798 0.064352825 -0.1135057 0.07092381 -0.091511026 -0.120335154 -0.07544519
-0.067632765 -0.13246891 -0.07803468 -0.04978647 0.044441875 0.026421752 -0.00047069695 0.13032788
-0.039232593 -0.0038066944 0.03690301 0.03405479 0.031316593 0.0037112753 0.06968078 -0.017917484
0.06647841 -0.05438825 -0.012815195 0.008405679 -0.011527904 0.072614774 0.13515392 0.052624747
0.06390826 0.10861727 -0.02002677 0.052365597 -0.0020213977 -0.1229643 -0.022749212 -0.12161663
-0.04806879 -0.17838325 -0.20111132 0.06434598 -0.010101596 -0.10734902 0.060699876 -0.038349636
-0.1096103 -0.05940937 0.039048813 -0.09360474 -0.10605153 0.014779426 -0.04351846 -0.03599092
-0.051729213 0.093955554 0.02475528 0.09333458 -0.0064034453 -0.042467773 -0.014907582 -0.010962611
0.03971343 0.051377133 0.008780026 -0.034335263 -0.084283255 -0.14874992 -0.13856503 0.008754144
0.07442979 -0.078657165 0.06935706 -0.09364318 0.017914452 -0.040398013 0.035281755 -0.10988974
-0.021139411 0.0064583463 -0.13766007 -0.063224204 0.028340645 -0.08835245 0.011211351 0.037528154
-0.07295622 -0.033391844 0.015790911 -0.03429098 -0.06222986 -0.050733462 0.004439013 0.0033757526
-0.0873284 0.07747978 -0.08385315 -0.070511766 0.00036603268 0.02804919 -0.14609142 -0.039022774
0.04760043 -0.088284925 0.006076012 0.08968726 0.10056085 0.1013258 0.028713424 0.017750077
0.06948155 -0.034895934 -0.03328021 -0.10451933 0.08798099 0.0031537018 -0.09283263 0.033855002
-0.06762715 0.00755085 0.018529372 -0.07911942 -0.16100015 0.037261788 0.062090248 -0.05322835
00000000: dd0e 0bbd aab7 a83c 3f3d 7f3c f1af aa3c
00000010: 2bb3 b7bc 60df f13d 573b 5f3d 04c5 283d
00000020: 0e41 aa3d 5393 b93d 3497 0abd 8e90 e43c
00000030: e66f a3bc 185d 1e3d 5d7b d5bd cdec 43bd
00000040: 9dfa abbd 9089 20bd 1e85 2ebd 2c8d 3abd
00000050: 0665 39be 7db7 d2bd 22b4 c6bd 2237 4bbc
00000060: b6cf 143d 67f6 eabc c392 ba3d 52a5 74bd
00000070: 5343 4fbc b8f0 1bbd d702 043a efc4 d0bc
00000080: ff96 1c3d a528 47bd 148b ed3c 0dda 903d
00000090: 48e9 5c3d 1217 c33d 2934 aa3d e26e 013d
000000a0: b556 40bd 6de7 ae3b 01a0 3fbe d597 ccbd
000000b0: da03 6bbd 52c0 4aba 518a d63d 6210 743d
000000c0: 437f 0c3d 2099 a33c c513 6fbd 9b17 043e
000000d0: 6c0d b03d 03d0 57bc 1583 a03d b2c4 1f3d
000000e0: 0be4 4abd 2dc4 62bd 26ba c5bd f2a3 1abe
000000f0: 1227 e3bd f618 09be e798 98be 86a4 783d
00000100: 3515 a33d e635 463b 02e4 3c3d 6bd4 793d
00000110: 73ab 27bd 8abb 903d 6e3e 813b 4abb 44bd
00000120: 1864 52bd a29a 963a afb9 27bc 7c59 0cbd
00000130: 6076 3c3c fc2e cc3d 3a2b f3b8 2015 103d
00000140: 9f7f 3a3d 18ed f9bd d145 8cbd 2804 05be
00000150: 167c 6ebc 8e63 dbbc f080 21bd 64fb 56bd
00000160: 3ce3 453c 48c1 b8bd 6cae 1d3d bbf3 f63b
00000170: 2d15 563b 7980 acbb cd7b a33d dd78 bbbc
00000180: 4ccb 89bd 59be 8e3d 7bf0 4fbc 0830 b9bd
00000190: 00ef 9bbb f969 393d b6e7 34bd 42d0 c53c
000001a0: 2279 ec3d 81e9 5cbd 3bff 073e a4b6 1b3e
000001b0: e022 d6bb e762 a83c 1ad6 edbb 7cf8 e1bc
000001c0: db0b 06bc 2821 2d3d 0b88 253d 9f4f ae3d
000001d0: 6372 003e d248 343d 28d8 713d 0f37 083e
000001e0: f541 34bd 5959 0b3c f3a2 0f3e 47a4 323c
000001f0: 53f7 5fbd 448c 073c 32f4 bc3c 3048 80bd
00000200: d5e9 e5bd 59c3 20bd 6acb 833d ad75 e8bd
00000210: 8140 913d 226a bbbd 4772 f6bd 0283 9abd
00000220: 0c83 8abd eea5 07be a5d0 9fbd e6ec 4bbd
00000230: af08 363d 6e72 d83c e0c7 f6b9 ac74 053e
00000240: 5bb2 20bd bc79 79bb 9c27 173d 097d 0b3d
00000250: d445 003d de38 733b ccb4 8e3d b0c7 92bc
00000260: d525 883d 37c6 5ebd d3f6 51bc f9b7 093c
00000270: 89df 3cbc 0eb7 943d ca65 0a3e 0c8d 573d
00000280: 55e2 823d bb72 de3d 2e0f a4bc 4f7d 563d
00000290: 6d79 04bb b5d4 fbbd 8e5c babc 2412 f9bd
000002a0: c8e3 44bd 19aa 36be 20f0 4dbe d3c7 833d
000002b0: 2a81 25bc ced9 dbbd 6fa0 783d 8214 1dbd
000002c0: 5d7b e0bd 3d57 73bd a6f1 1f3d d8b3 bfbd
000002d0: 8b31 d9bd 6825 723c 6a40 32bd 376b 13bd
000002e0: 03e2 53bd c56b c03d 96cb ca3c 3326 bf3d
000002f0: fed3 d1bb b0f2 2dbd ee3e 74bc 869c 33bc
00000300: 8daa 223d d470 523d 19da 0f3c 22a3 0cbd
00000310: b39c acbd e651 18be fee3 0dbe 8b6d 0f3c
00000320: a56e 983d 0217 a1bd 130b 8e3d ffc7 bfbd
00000330: 54c1 923c 6378 25bd 9a83 103d df0d e1bd
00000340: 8f2c adbc 89a0 d33b c3f6 0cbe b17b 81bd
00000350: a42a e83c 21f2 b4bd d0af 373c 1fb7 193d
00000360: 126a 95bd e3c5 08bd f15b 813c b374 0cbd
00000370: bde4 7ebd e4cd 4fbd 2475 913b bb3b 5d3b
00000380: 3bd9 b2bd b8ad 9e3d 33bb abbd 7968 90bd
00000390: 13e8 bf39 6ac7 e53c fd98 15be 58d6 1fbd
000003a0: abf8 423d bace b4bd 4819 c73b f4ad b73d
000003b0: d9f2 cd3d e783 cf3d 6a38 eb3c 9c68 913c
000003c0: 584c 8e3d 0aef 0ebd d450 08bd 3b0e d6bd
000003d0: 612f b43d 56ae 4e3b 091f bebd 8bab 0a3d
000003e0: 1a80 8abd 1f6d f73b e9ca 973c 5d09 a2bd
000003f0: 39dd 24be d19f 183d 5852 7e3d f805 5abd

layer1.1.bn1.weight f4 [16]
0.9110274 0.97638595 0.97635806 0.98204404 1.1143574 1.002829 0.9088669 1.0396711
0.99800503 0.99616224 1.0304841 1.0911078 0.92117554 1.0162321 1.1119729 1.0253204
00000000: 1739 693f 6ef4 793f 9af2 793f 3d67 7b3f
00000010: 43a3 8e3f b35c 803f 80ab 683f f113 853f
00000020: 427d 7f3f 7d04 7f3f e7e6 833f 6ca9 8b3f
00000030: 29d2 6b3f e513 823f 2155 8e3f b33d 833f

layer1.1.bn1.bias f4 [16]
-0.13612817 -0.06960764 -0.22296582 -0.10856734 -0.19044766 -0.102355726 -0.12047037 -0.05144656
-0.10093386 -0.09280062 -0.09969124 -0.029942548 -0.045414872 -0.016020633 0.00052895775 -0.04823926
00000000: 2f65 0bbe 738e 8ebd 2751 64be 8e58 debd
00000010: b604 43be e19f d1bd 2bb9 f6bd a1b9 52bd
00000020: 69b6 cebd 400e bebd ec2a ccbd 134a f5bc
00000030: f204 3abd b43d 83bc c1a9 0a3a 8896 45bd

layer1.1.bn1.running_mean f4 [16]
-0.4498949 -0.77108586 -0.4364486 -1.1542649 -0.43425152 -0.9584683 0.6277779 -0.7748452
0.639328 -0.36968684 -1.298155 -0.8228424 1.1285251 0.17497802 -1.0623442 -0.38438547
00000000: a058 e6be e265 45bf 3176 dfbe f4be 93bf
00000010: 3756 debe 2e5e 75bf 0db6 203f 415c 46bf
00000020: 00ab 233f 9847 bdbe f129 a6bf cda5 52bf
00000030: 8373 903f 702d 333e e5fa 87bf 2cce c4be

layer1.1.bn1.running_var f4 [16]
0.77067524 0.6551725 0.7837313 1.3071529 0.55699986 1.561154 0.6713883 1.0010055
0.77874666 0.80283445 0.89124626 0.9001444 0.99864054 0.8126097 1.6195109 0.69959337
00000000: f94a 453f 63b9 273f 9da2 483f c950 a73f
00000010: 8b97 0e3f e5d3 c73f 1be0 2b3f f320 803f
00000020: f15b 473f 8f86 4d3f b728 643f dd6f 663f
00000030: e8a6 7f3f 3007 503f 224c cf3f 8d18 333f

layer1.1.conv2.weight f4 [16, 16, 3, 3]
-0.040159173 0.030583244 0.029804619 0.02508239 -0.008079179 0.17900759 0.05885141 0.11624499
0.28634956 -0.064178444 -0.037976254 0.011193635 -0.035174634 -0.08624136 0.012973742 -0.12343457
-0.05444896 0.018906416 -0.03628964 -0.039881673 0.060431514 0.024433939 0.029187327 0.017323922
-0.049224343 -0.0017694 -0.07095204 -0.09522229 -0.13193703 -0.119317025 0.006126654 -0.090493776
-0.043616522 -0.116485134 -0.12847386 -0.010083526 0.043702316 0.0056820796 -0.032107428 -0.08623935
0.05191638 0.11966382 0.008930101 -0.010475604 0.1688189 -0.061047725 -0.036050986 -0.020555438
-0.15732203 -0.062030517 0.040335387 -0.012696839 -0.06172997 0.10894859 -0.056870755 0.060476217
0.009839271 -0.035045367 0.05584659 -0.051554173 -0.046470158 -0.038148105 -0.07570401 -0.1492556
-0.025733985 -0.062521756 -0.046561476 -0.091369964 0.073934674 -0.084273405 -0.08326619 -0.09939412
0.019372856 -0.05348853 -0.14288434 -0.014229473 -0.035937343 -0.030269317 -0.026437879 -0.03842183
-0.12885953 0.034444828 -0.100076966 -0.031504244 -0.020378046 0.032145467 0.053625375 0.075315736
0.09564404 0.19356203 0.042371523 0.07736481 -0.09916367 0.03417977 -0.04461478 -0.063507795
-0.064918056 -0.066776104 -0.088579394 -0.12923667 0.07326172 0.09869972 -0.057968393 0.009624184
0.03848772 -0.065605104 -0.029750165 0.13714413 -0.021957299 -0.08607147 -0.10025672 -0.03240614
-0.0906545 -0.08649346 0.05992191 -0.116385445 -0.09223868 -0.006997127 -0.079349674 0.03810892
0.021861875 0.013882529 0.0069525572 0.006347185 -0.0004938959 0.012746396 -0.086536184 -0.058671415
-0.13742916 -0.07305291 0.04487038 -0.10202416 0.1431625 0.16823693 0.059139572 0.07805793
0.047600444 0.08383806 -0.017613303 0.01125917 0.07241049 -0.052284893 -0.03812449 0.04168533
-0.16369653 -0.12085236 -0.09978695 -0.09396134 -0.051172942 -0.11919772 0.01995117 -0.02013243
-0.0021357755 -0.02746804 -0.08889847 -0.026494691 0.06648308 -0.04260475 0.029013457 0.1302303
0.10894638 0.063851185 0.044769958 -0.04288778 -0.0064249244 0.0071515227 -0.01807318 -0.025732046
-0.16244327 -0.05463053 -0.049668957 -0.06533812 0.011017963 -0.09234371 0.11823577 0.09494875
-0.017948942 0.12086121 0.01884009 0.015342029 -0.093785726 0.007952664 -0.04351073 -0.045915715
0.073338956 0.0038300005 -0.16428675 0.033777915 0.01135976 -0.07212749 -0.104125544 -0.17579569
0.027420362 -0.015500576 -0.082161784 0.0929537 0.046637453 0.02432903 0.10615379 0.030591346
0.045043763 0.06370379 -0.050631702 -0.017653698 0.055348597 0.0893239 -0.015758354 -0.12006014
0.009697803 0.044482578 0.007587027 0.08309333 0.048908956 -0.055547982 -0.1296324 0.058707748
-0.016303604 -0.06981298 -0.0202141 -0.020031253 -0.0075505413 0.019862186 0.01932304 0.057709806
0.053642612 -0.19599725 -0.13669132 -0.08028218 -0.038322132 -0.038865555 -0.09558327 0.1687335
0.083513886 -0.012529147 0.062771685 -0.021607153 -0.09459968 -0.080539115 -0.0027833742 -0.20523109
0.06487888 0.023025826 -0.0233668 -0.09512403 -0.13425386 0.006003643 0.07895433 0.005502012
0.15019853 0.027188852 0.026541894 0.016356096 -0.091242075 -0.012527364 -0.05031295 -0.073478594
00000000: f27d 24bd b689 fa3c d128 f43c 9679 cd3c
00000010: 885e 04bc c44d 373e 2d0e 713d da11 ee3d
00000020: 699c 923e fd6f 83bd fd8c 1bbd 8265 373c
00000030: 4713 10bd 4f9f b0bd d18f 543c 44cb fcbd
00000040: df05 5fbd a1e1 9a3c 72a4 14bd f75a 23bd
00000050: 0987 773d af29 c83c 431a ef3c e6ea 8d3c
00000060: 779f 49bd 36eb e7ba 4e4f 91bd e703 c3bd
00000070: 801a 07be 7c5c f4bd 19c2 c83b cd54 b9bd
00000080: 3da7 32bd c28f eebd a78e 03be 6035 25bc
00000090: 3301 333d bd30 ba3b 1483 03bd 429e b0bd
000000a0: 45a6 543d 4e12 f53d 8f4f 123c dea1 2bbc
000000b0: ddde 2c3e 2e0d 7abd 33aa 13bd e163 a8bc
000000c0: 0719 21be b613 7ebd b836 253d 6706 50bc
000000d0: 91d8 7cbd 7020 df3d 4ff1 68bd e9b5 773d
000000e0: e534 213c bb8b 0fbd 65bf 643d 782a 53bd
000000f0: 7e57 3ebd 3041 1cbd b40a 9bbd 76d6 18be
00000100: 14d0 d2bc 680b 80bd 3fb7 3ebd 2d20 bbbd
00000110: 106b 973d 8997 acbd 7787 aabd 258f cbbd
00000120: d3b3 9e3c ca16 5bbd 4650 12be bc22 69bc
00000130: 0933 13bd 5cf7 f7bc 4094 d8bc 3560 1dbd
00000140: c1f3 03be 0516 0d3d 27f5 ccbd 980a 01bd
00000150: dcef a6bc f7aa 033d 48a6 5b3d 233f 9a3d
00000160: 06e1 c33d 2035 463e c38d 2d3d 7171 9e3d
00000170: 5216 cbbd 1600 0c3d fdbd 36bd 6010 82bd
00000180: c2f3 84bd e9c1 88bd 1d69 b5bd 9e56 04be
00000190: 3e0a 963d 1423 ca3d 4470 6dbd c1ae 1d3c
000001a0: 4da5 1d3d f85b 86bd 9eb6 f3bc 836f 0c3e
000001b0: cbdf b3bc 3d46 b0bd 6553 cdbd 4dbc 04bd
000001c0: 11a9 b9bd 7c23 b1bd ad70 753d 7e5b eebd
000001d0: a2e7 bcbd 2848 e5bb 1582 a2bd 1918 1c3d
000001e0: ad17 b33c 8c73 633c 47d2 e33b 0cfc cf3b
000001f0: cb78 01ba 42d6 503c e239 b1bd 7051 70bd
00000200: 3bba 0cbe c49c 95bd 01ca 373d 0bf2 d0bd
00000210: 3199 123e 4d46 2c3e 563c 723d d6dc 9f3d
00000220: aff8 423d 4ab3 ab3d c649 90bc 6278 383c
00000230: f34b 943d af28 56bd 6d28 1cbd 3dbe 2a3d
00000240: 10a0 27be 7181 f7bd 1a5d ccbd ce6e c0bd
00000250: b89a 51bd ef1d f4bd a370 a33c c4ec a4bc
00000260: 5ef8 0bbb a804 e1bc 6710 b6bd 650b d9bc
00000270: 4828 883d 5182 2ebd a1ad ed3c 175b 053e
00000280: 481f df3d 69c4 823d b460 373d 19ab 2fbd
00000290: 2c88 d2bb 5257 ea3b 350e 94bc 03cc d2bc
000002a0: 8757 26be 43c4 5fbd ad71 4bbd fecf 85bd
000002b0: b084 343c b31e bdbd 9825 f23d 7e74 c23d
000002c0: a909 93bc 1586 f73d 8856 9a3c 225d 7b3c
000002d0: bb12 c0bd e44b 023c 4f38 32bd 1e12 3cbd
000002e0: bc32 963d bf00 7b3b c93a 28be b65a 0a3d
000002f0: 491e 3a3c 94b7 93bd c63f d5bd c903 34be
00000300: aba0 e03c 21f6 7dbc 7044 a8bd 825e be3d
00000310: ea06 3f3d ad4d c73c 2967 d93d b49a fa3c
00000320: cf7f 383d 2277 823d 3063 4fbd 7d9e 90bc
00000330: 36b5 623d 73ef b63d aa17 81bc 17e2 f5bd
00000340: 89e3 1e3c 5d33 363d 989c f83b d62c aa3d
00000350: c254 483d 4886 63bd 5bbe 04be 8977 703d
00000360: 238f 85bc 1cfa 8ebd 0a98 a5bc 9518 a4bc
00000370: 886a f7bb 06b6 a23c 5a4b 9e3c 1e61 6c3d
00000380: 5bb8 5b3d 81b3 48be cff8 0bbe fc6a a4bd
00000390: abf7 1cbd 7d31 1fbd 29c1 c3bd 7ac8 2c3e
000003a0: 5409 ab3d 0d47 4dbc 718e 803d 7c01 b1bc
000003b0: 7abd c1bd b1f1 a4bd 4569 36bb 1928 52be
000003c0: 38df 843d a8a0 bc3c bb6b bfbc 63d0 c2bd
000003d0: d879 09be 35ba c43b cfb2 a13d 394a b43b
000003e0: a5cd 193e 28bb de3c 636e d93c 38fd 853c
000003f0: 20dd babd 933f 4dbc f414 4ebd f27b 96bd

layer1.1.bn2.weight f4 [16]
1.0692972 1.0359374 1.071968 0.98889405 1.0237527 1.1314042 1.076949 1.1502897
1.1995287 1.0588545 1.1088345 1.2421198 1.1304228 1.0820559 1.001199 1.1116908
00000000: bbde 883f 9999 843f 3f36 893f 2928 7d3f
00000010: 540a 833f dad1 903f 77d9 893f b13c 933f
00000020: 288a 993f 8b88 873f 4aee 8d3f c8fd 9e3f
00000030: b2b1 903f cf80 8a3f 4a27 803f e24b 8e3f

layer1.1.bn2.bias f4 [16]
-0.18750638 0.0007287242 -0.13735902 -0.18772209 -0.035517443 -0.037777632 -0.20319974 -0.08335975
0.043498486 -0.07011605 -0.08366671 -0.04765609 0.08027496 0.0021919662 -0.08915271 -0.05853577
00000000: ac01 40be da07 3f3a d8a7 0cbe 383a 40be
00000010: bd7a 11bd b8bc 1abd 9813 50be 84b8 aabd
00000020: 782b 323d 0199 8fbd 7459 abbd 0833 43bd
00000030: 3367 a43d 17a7 0f3b b295 b6bd 34c3 6fbd

layer1.1.bn2.running_mean f4 [16]
-0.5357034 -0.3112289 -0.7573877 -0.054882746 -0.5220101 -0.45904824 -0.11198356 -0.59921473
-0.1644979 0.4848843 -0.3606262 0.23185015 0.22883147 0.28421938 -0.4608781 -0.5506282
00000000: dc23 09bf 6559 9fbe 29e4 41bf bbcc 60bd
00000010: 74a2 05bf 5f08 ebbe a357 e5bd 2366 19bf
00000020: 2372 28be c142 f83e ffa3 b8be 206a 6d3e
00000030: cc52 6a3e 3485 913e 37f8 ebbe f8f5 0cbf

layer1.1.bn2.running_var f4 [16]
0.75761986 0.6465986 0.5920179 0.74766713 0.7853189 1.4194955 1.0739578 0.62883145
0.57388794 0.867724 1.0829643 0.6209621 0.9247301 0.7279217 0.89614165 0.5213857
00000000: 60f3 413f 7c87 253f 7c8e 173f 1d67 3f3f
00000010: a90a 493f 07b2 b53f 7377 893f 19fb 203f
00000020: 52ea 123f 2923 5e3f 939e 8a3f 5ff7 1e3f
00000030: 1dbb 6c3f 1459 3a3f 8a69 653f 8979 053f

layer2.0.conv1.weight f4 [32, 16, 3, 3]
-0.016029011 0.030615665 0.0059842644 0.010816539 -0.021880172 0.00076432404 0.029590102 0.040031213
0.12425915 -0.016339328 -0.083162285 -0.017027294 0.068085164 -0.019967435 0.04972376 0.079773016
3.1237123e-06 0.13600373 0.04057554 -0.06381745 -0.079983264 0.041226014 -0.06628726 -0.06994162
0.033393215 -0.13433836 -0.09277974 0.021781417 -0.05152567 -0.029651422 -0.018601738 0.06571535
0.07992731 -0.03286409 0.19243664 0.12767197 -0.06287498 0.07094565 -0.06368216 -0.048195053
0.037024416 0.0022537517 -0.10217017 -0.04199109 -0.11104441 0.025504166 0.04933651 -0.027956944
0.003339634 -0.11433115 -0.1329359 0.06299124 0.046037868 0.026993027 -0.03330917 -0.07803559
-0.07493274 0.1039236 -0.0688139 -0.15057279 0.069579735 -0.14254902 -0.17070536 -0.023658834
-0.0008766174 0.023522247 -0.038092956 0.022557132 0.068151094 0.0006668442 0.015554204 -0.043752853
-0.16826083 -0.13729577 -0.06103739 -0.057694223 -0.062222484 -0.12200525 0.02896709 -0.08486742
-0.08227962 -0.026206674 -0.062165696 -0.029815784 0.13024718 -0.04826017 0.052417044 0.0908927
0.019025354 0.12847087 0.10046278 0.0428463 0.0786592 0.00068934174 0.011249806 0.09133432
0.12519705 -0.011169098 0.014298018 0.08036154 0.089307085 0.15424809 -0.107496195 0.04143358
0.119533405 -0.12912092 -0.13871235 0.007518389 -0.004672358 -0.047123242 -0.08742413 -0.08319058
-0.029046007 0.08062333 0.037869498 0.07668499 0.047129124 0.04869061 0.13329656 -0.1151493
0.048067506 0.02666972 0.05785307 0.008583633 0.057137918 0.14876983 -0.10503128 -0.14299795
-0.14937873 -0.0989448 -0.109459504 -0.029190822 0.10278171 0.025580075 0.064211085 0.062296722
0.08609036 0.09033759 0.018979631 0.005746577 0.20341338 0.15010205 0.031376913 0.15770836
-0.09863751 -0.010188132 0.05545694 0.040447816 -0.0027845325 -0.020405166 0.059650302 0.12724935
0.117946595 -0.021938335 0.012752458 -0.06339957 -0.03529351 -0.07475272 -0.22711521 0.19200614
-0.0015292333 -0.045378543 0.09304584 -0.06469854 0.009032471 0.12894256 0.03101116 -0.00059542665
0.16122206 0.003399337 0.065066375 -0.11424657 -0.05758424 0.011731327 -0.10389051 -0.12705883
0.051015016 -0.080440715 -0.1271509 0.025414497 -0.008578377 -0.05454726 -0.07575545 -0.056483235
-0.08300629 -0.079808846 0.062094487 0.0029953802 -0.0049812635 -0.12018514 -0.058011644 -0.083078146
-0.07917112 -0.007144632 -0.049439494 -0.10505504 -0.00538875 -0.09564993 0.025540913 0.019134397
0.12278347 -0.13321175 -0.122678235 -0.013360491 -0.0064644534 -0.12859756 0.02401572 0.045197733
0.08622639 -0.07222934 0.08574725 0.06445343 0.106049456 0.1416848 0.10514675 0.01406956
0.021398604 0.06661939 0.016713088 -0.045083188 0.019846715 -0.0055522285 -0.065004505 -0.034849856
-0.044529427 0.050632183 0.057924606 -0.00734776 0.071404815 -0.023872321 -0.080451116 0.14797623
0.009836852 0.06536575 0.0031003144 -0.06645988 -0.16354655 0.0581416 -0.02710578 -0.04120769
0.09764393 -0.042276766 -0.028906832 -0.03168151 -0.053997878 -0.1402645 -0.059317805 -0.0093436465
-0.058590546 -0.009662732 0.0329707 -0.0099593075 -0.07115482 -0.031638574 0.05140034 0.008729829
00000000: 464f 83bc b4cd fa3c a617 c43b da37 313c
00000010: 0c3e b3bc eb5c 483a f166 f23c c5f7 233d
00000020: 957b fe3d 0eda 85bc fd50 aabd d37c 8bbc
00000030: 3c70 8b3d bf92 a3bc 24ab 4b3d 0960 a33d
00000040: f8a0 5136 9044 0b3e 8a32 263d b9b2 82bd
00000050: 44ce a3bd 9cdc 283d 9dc1 87bd 8d3d 8fbd
00000060: 53c7 083d ff8f 09be 4e03 bebd f16e b23c
00000070: 950c 53bd 8ae7 f2bc ac62 98bc c595 863d
00000080: eeb0 a33d 7f9c 06bd 1c0e 453e 71bc 023e
00000090: 99c4 80bd f44b 913d cb6b 82bd 2d68 45bd
000000a0: eaa6 173d aeb3 133b 983e d1bd d9fe 2bbd
000000b0: 406b e3bd 1dee d03c 1515 4a3d f605 e5bc
000000c0: c3dd 5a3b 7326 eabd 5920 08be 8d01 813d
000000d0: 3492 3c3d 7b20 dd3c 326f 08bd 20d1 9fbd
000000e0: 5676 99bd e5d5 d43d 4dee 8cbd c12f 1abe
000000f0: d27f 8e3d 5ff8 11be 63cd 2ebe 2cd0 c1bc
00000100: cccc 65ba bab1 c03c 5c07 1cbd bcc9 b83c
00000110: cd92 8b3d 28cf 2e3a 0fd7 7e3c 3136 33bd
00000120: 914c 2cbe 4397 0cbe 5802 7abd c750 6cbd
00000130: 01dd 7ebd e3dd f9bd 644c ed3c f8ce adbd
00000140: 3882 a8bd 61af d6bc 75a1 7ebd 3b40 f4bc
00000150: 845f 053e 75ac 45bd 41b3 563d f425 ba3d
00000160: 0fdb 9b3c de8d 033e 6ebf cd3d 9a7f 2f3d
00000170: 1318 a13d f1b4 343a 1b51 383c 7d0d bb3d
00000180: a833 003e 98fe 36bc 3c42 6a3c 9794 a43d
00000190: a2e6 b63d 36f3 1d3e f726 dcbd 42b6 293d
000001a0: eecd f43d 4638 04be 9c0a 0ebe d15c f63b
000001b0: 941a 99bb 4d04 41bd 6c0b b3bd d35f aabd
000001c0: e4f1 edbc d81d a53d 0c1d 1b3d 050d 9d3d
000001d0: 780a 413d ce6f 473d e57e 083e 65d3 ebbd
000001e0: 6fe2 443d 757a da3c 57f7 6c3d 5ea2 0c3c
000001f0: 7309 6a3d 1e57 183e a41a d7bd 0e6e 12be
00000200: bdf6 18be 92a3 cabd 4e2c e0bd 9721 efbc
00000210: 387f d23d 4e8d d13c 1a81 833d d92a 7f3d
00000220: 2550 b03d ea02 b93d 2c7b 9b3c c84d bc3b
00000230: 994b 503e 5ab4 193e 1485 003d 4d7e 213e
00000240: 7602 cabd 1fec 26bc d126 633d 9cac 253d
00000250: b47c 36bb bc28 a7bc e053 743d a74d 023e
00000260: fc8d f13d 06b8 b3bc b0ef 503c a2d7 81bd
00000270: ed8f 10bd f417 99bd e490 68be 429d 443e
00000280: 8e70 c8ba dade 39bd d18e be3d ab80 84bd
00000290: eefc 133c 8509 043e 1e0b fe3c 6816 1cba
000002a0: 6517 253e 69c7 5e3b 8541 853d 1bfa e9bd
000002b0: 74dd 6bbd c034 403c 8cc4 d4bd b61b 02be
000002c0: 1ff5 503d 1abe a4bd d833 02be 1032 d03c
000002d0: 528c 0cbc f36c 5fbd ac25 9bbd f75a 67bd
000002e0: 34ff a9bd d272 a3bd ca56 7e3d 244e 443b
000002f0: de39 a3bb a023 f6bd 9e9d 6dbd e024 aabd
00000300: 7824 a2bd 841d eabb 1181 4abd 1927 d7bd
00000310: 1d94 b0bb 1ce4 c3bd 2d3b d13c bdbf 9c3c
00000320: e675 fb3d a968 08be ba3e fbbd f6e5 5abc
00000330: c4d3 d3bb 14af 03be 9dbc c43c 4221 393d
00000340: 7697 b03d faec 93bd 419c af3d 2900 843d
00000350: 7530 d93d d215 113e 2e57 d73d 0384 663c
00000360: 204c af3c bf6f 883d e3e9 883c 26a9 38bd
00000370: 9495 a23c 78ef b5bb 1521 85bd b9be 0ebd
00000380: 7d64 36bd b163 4f3d 5a42 6d3d 7ac5 f0bb
00000390: b03c 923d e38f c3bc 8ec3 a4bd 1587 173e
000003a0: bf2a 213c 7ade 853d a52e 4b3b 1e1c 88bd
000003b0: bf78 27be e325 6e3d f10c debc 65c9 28bd
000003c0: 8af9 c73d 672a 2dbd 05ce ecbc 79c4 01bd
000003d0: e12c 5dbd 7fa1 0fbe 3af7 72bd 1816 19bc
000003e0: a4fc 6fbd 6f50 1ebc 490c 073d 5d2c 23bc
000003f0: 9eb9 91bd 7397 01bd 2a89 523d 8f07 0f3c

layer2.0.bn1.weight f4 [32]
0.95010895 0.891558 1.0513635 0.8781797 0.855251 1.0526435 1.0439171 0.96203345
0.8953222 1.0002025 1.0402775 1.0675367 1.0277644 1.1054939 0.88921374 1.033103
0.8214152 1.0420269 0.99529237 1.0822483 1.0208728 0.99239075 1.0935469 1.0619228
1.0555266 1.03597 1.0988908 0.9715262 0.88033587 0.93929946 0.9603745 0.94413835
00000000: 573a 733f 253d 643f 1493 863f 63d0 603f
00000010: bbf1 5a3f 06bd 863f 139f 853f d347 763f
00000020: d633 653f a306 803f d027 853f 0ba5 883f
00000030: c98d 833f d380 8d3f 83a3 633f b83c 843f
00000040: 4448 523f 2361 853f 7bcb 7e3f 1d87 8a3f
00000050: f6ab 823f 520d 7e3f 58f9 8b3f 16ed 873f
00000060: 7f1b 873f aa9a 843f 74a8 8c3f f1b5 783f
00000070: b15d 613f ee75 703f 1adb 753f 0db3 713f

layer2.0.bn1.bias f4 [32]
-0.2422442 -0.21873224 -0.15929653 -0.22016655 -0.22272168 -0.37272775 -0.1032056 -0.24145941
-0.13411519 -0.23733272 -0.20535953 -0.06902698 -0.34166732 0.0059975395 -0.23803002 -0.16741404
-0.20160468 -0.12951173 -0.1492301 -0.18595704 -0.07949883 -0.32967058 -0.16536912 -0.13690676
-0.052276924 -0.09890424 -0.018710569 -0.12641577 -0.34005213 -0.15555897 -0.22948064 -0.29071477
00000000: dd0e 78be 58fb 5fbe a11e 23be 5773 61be
00000010: 2711 64be 2cd6 bebe 755d d3bd 2341 77be
00000020: 7e55 09be 5907 73be c549 52be 045e 8dbd
00000030: 05ef aebe 0287 c43b 24be 73be 966e 2bbe
00000040: 7571 4ebe b99e 04be c6cf 18be 866b 3ebe
00000050: 48d0 a2bd 95ca a8be 8656 29be 4931 0cbe
00000060: 5420 56bd 4e8e cabd e846 99bc 2373 01be
00000070: 501b aebe da4a 1fbe f9fc 6abe 91d8 94be

layer2.0.bn1.running_mean f4 [32]
0.1773997 -0.5910377 -0.41519204 -1.0321357 2.095834 0.47609833 -2.3790703 -1.4283171
-1.9579012 -1.6373458 -1.7794472 -2.0382724 -1.2433583 -1.4302282 -1.074172 -0.17972232
-1.6938093 -1.1264101 -1.3242646 -0.8481458 0.43769905 0.8529227 -1.181311 -1.3182378
-1.0583228 -0.5714629 -1.2131248 -2.8516455 -0.15807039 0.12846005 -0.44433463 -0.59646845
00000000: 44a8 353e 3f4e 17bf 0d94 d4be 061d 84bf
00000010: 2522 0640 29c3 f33e b042 18c0 18d3 b6bf
00000020: 829c fabf 8c94 d1bf edc4 e3bf 0e73 02c0
00000030: 5d26 9fbf b811 b7bf 787e 89bf 2109 38be
00000040: bece d8bf 352e 90bf 8181 a9bf 1520 59bf
00000050: 171a e03e 2459 5a3f 3335 97bf 04bc a8bf
00000060: 1f77 87bf 654b 12bf ac47 9bbf 5c81 36c0
00000070: 34dd 21be 088b 033e d47f e3be 28b2 18bf

layer2.0.bn1.running_var f4 [32]
1.699282 1.3483436 2.4199748 1.4858565 3.1650143 1.6523381 2.4906244 1.3412551
1.6660112 1.3391019 1.196824 2.5356069 2.5753639 2.8286724 1.0975378 1.9366395
2.2529902 1.274414 1.3694426 1.7764722 2.2399693 1.8291059 1.5306777 2.2171326
1.7690237 2.7746887 2.585775 4.205087 2.0169265 2.6495576 2.2389033 1.354564
00000000: 1382 d93f 8696 ac3f dee0 1a40 8c30 be3f
00000010: 988f 4a40 d17f d33f 6466 1f40 3fae ab3f
00000020: db3f d53f b167 ab3f 8731 993f 6247 2240
00000030: c3d2 2440 f808 3540 1e7c 8c3f cee3 f73f
00000040: fe30 1040 ff1f a33f e549 af3f 7163 e33f
00000050: a85b 0f40 2420 ea3f 3fed c33f 80e5 0d40
00000060: 5e6f e23f 8094 3140 567d 2540 1390 8640
00000070: 5315 0140 5a92 2940 314a 0f40 5a62 ad3f
