Resnet-MNIST/resnet.ckpt (torch_old, 801084 bytes, 77 tensors)

conv.weight f4 [16, 1, 3, 3]
0	0x3e12f222	0.14350179
1	0x3e010c57	0.12602364
2	0x3d435e5d	0.047697414
3	0x3e0518f4	0.129978
4	0xba97c248	-0.0011578286
5	0xbd8ce724	-0.06880024
6	0xbe818b8f	-0.25301787
7	0xbdf35fc3	-0.118834995
8	0xbe76b6e0	-0.24093199
9	0x3da55f6b	0.0807484
10	0x3ea96df8	0.33091712
11	0x3e676001	0.22595216
12	0x3b064aa7	0.0020491274
13	0xbe4472ab	-0.19184367
14	0x3e92eda2	0.28696924
15	0x3e94a70a	0.2903369
16	0x3e2b1392	0.16706684
17	0x3eb58ff4	0.3546139
18	0xbbbe98d0	-0.0058165565
19	0xbe5908ec	-0.2119481
20	0xbe806c5c	-0.25082672
21	0x3e82b863	0.255313
22	0xbeb799c0	-0.3585949
23	0x3e0d31be	0.13788506
24	0xbe1529c3	-0.14566712
25	0x3ba96167	0.005169082
26	0x3e9c5806	0.30535907
27	0x3bddca13	0.006768474
28	0x3ddca4dd	0.10773633
29	0x3e058ef0	0.13042808
30	0x3dbffd7f	0.093745224
31	0xbe4ee1ed	-0.20203371
32	0xbde302a4	-0.11084488
33	0xbe989023	-0.29797468
34	0x3e5d3395	0.21601708
35	0x3e005196	0.12531123
36	0x3cca60d8	0.024704382
37	0x3caee867	0.021351052
38	0xbdac50c1	-0.0841384
39	0xbe6515b5	-0.22371562
40	0x3e2b26d0	0.16714025
41	0xbea5b954	-0.32367957
42	0x3dba7815	0.09104935
43	0xbd62eda5	-0.055402417
44	0x3e93602f	0.2878432
45	0xbdb0c39f	-0.08631062
46	0xbe3f898f	-0.18704818
47	0xbe6d726e	-0.23188183
48	0xbdedc844	-0.11610463
49	0xbcbb925b	-0.022896936
50	0x3eb4e4bf	0.3533077
51	0xbe0c0ecb	-0.13677518
52	0xbea4c6f0	-0.32183027
53	0x3d94f2b3	0.07272854
54	0xbdc01c95	-0.093804516
55	0x3e802244	0.25026143
56	0x3dacc745	0.08436445
57	0x3e1c8c9f	0.15288018
58	0xbe1bca88	-0.15213978
59	0x3e1d795c	0.15378326
60	0xbe0546c3	-0.13015275
61	0xbe4948ca	-0.19656673
62	0xbd0ccb57	-0.034373607
63	0xbe8dff8e	-0.27734035
64	0x3dbe3098	0.09286612
65	0xbe9214ba	-0.28531438
66	0xbe9826f2	-0.29717213
67	0x3e3911fa	0.18073264
68	0xbde0c192	-0.109744206
69	0x3e0102ac	0.12598675
70	0xbeb631af	-0.3558478
71	0xbd82db1b	-0.06389447
72	0x3dca322b	0.0987285
73	0xbdda874d	-0.10670338
74	0x3e1d3ffa	0.15356436
75	0x3d4f132a	0.050555386
76	0xbdc4630b	-0.095892034
77	0xbe94a5d0	-0.29032755
78	0xbe82f557	-0.25577804
79	0x3c16fcfb	0.009215589
80	0xbd9a5204	-0.075351745
81	0x3e487f5c	0.19579834
82	0xbd9966c7	-0.07490306
83	0xbe53f0de	-0.20697352
84	0x3e4d16fd	0.200283
85	0xbe177e3a	-0.14794245
86	0x3d846289	0.064641066
87	0xbe14fa5e	-0.14548633
88	0x3e39582b	0.1810004
89	0xbec00b4a	-0.37508613
90	0xbd7b3b71	-0.061335985
91	0x3d16a431	0.03677768
92	0xbbc54716	-0.006020437
93	0xbe995a9a	-0.29951936
94	0x3e44930b	0.19196717
95	0x3e13eaa1	0.14444973
96	0xbe38ba87	-0.18039905
97	0xbe91b6fe	-0.28459924
98	0xbe8f3653	-0.27971134
99	0xbe3cee37	-0.18450247
100	0x3e4bad9d	0.19890447
101	0x3e5f4999	0.21805419
102	0xbd6a9ef7	-0.057280507
103	0x3ddc9589	0.10770709
104	0xbeac51d4	-0.3365618
105	0xbeac8712	-0.336968
106	0xbea5bbbd	-0.32369795
107	0xbd9a13dd	-0.0752332
108	0x3ae5e2a7	0.0017538861
109	0xbe640d54	-0.2227071
110	0xbe974985	-0.29548278
111	0x3e4fd306	0.20295343
112	0x3de140ff	0.10998725
113	0x3df4dca5	0.11956147
114	0xbcc1d8da	-0.023662973
115	0x3d117a09	0.035516772
116	0x3d598291	0.053103033
117	0xbe313fe0	-0.17309523
118	0xbea489bc	-0.32136333
119	0xbd23464d	-0.039861966
120	0x3e91db4b	0.2848762
121	0x3e07aa60	0.13248587
122	0xbe904d2b	-0.28183874
123	0xbdc8b2f2	-0.09799756
124	0x3ea40204	0.32032788
125	0xbe7319cf	-0.23740314
126	0x3d53e49c	0.05173169
127	0x3da57f8f	0.080809705
128	0x3e60ce2b	0.21953647
129	0xbd0fbb92	-0.03509099
130	0xbe59b842	-0.21261695
131	0xbe9cec87	-0.30649206
132	0x3e8bd8c9	0.2731383
133	0xbe88e36e	-0.26736015
134	0xbe5401f6	-0.20703873
135	0xbe5ab0b1	-0.21356465
136	0x3e0e7332	0.13911131
137	0xbe696fce	-0.22796556
138	0xbe9a31ea	-0.30116206
139	0xbd2a6960	-0.0416044
140	0x3dd2eaa4	0.102986604
141	0xbec20cbf	-0.3790035
142	0xbe4b2af3	-0.19840603
143	0xbd81a05c	-0.06329414

bn.weight f4 [16]
0	0x3f8476eb	1.0348791
1	0x3f689137	0.9084658
2	0x3f7cf707	0.98814434
3	0x3f616491	0.8804408
4	0x3f78c754	0.9717915
5	0x3f813927	1.0095567
6	0x3f8078af	1.003683
7	0x3f765798	0.9622741
8	0x3f69db97	0.9135069
9	0x3f813e7a	1.0097191
10	0x3f86afe8	1.0522432
11	0x3f7b90f3	0.9826805
12	0x3f6e3a49	0.93057686
13	0x3f8991b3	1.0747589
14	0x3f7a533b	0.9778325
15	0x3f75a7b7	0.9595904

bn.bias f4 [16]
0	0x3d32a824	0.043617383
1	0xbd8b4f34	-0.06802216
2	0x3c125ec3	0.008933726
3	0xbd23ae30	-0.03996104
4	0x3d2476e6	0.040152453
5	0xbcbe1251	-0.023202093
6	0x3bb49999	0.0055114743
7	0xbd18348b	-0.037159484
8	0xbd8531c2	-0.06503631
9	0x3d054986	0.03254082
10	0x3c1dbdbf	0.0096277585
11	0xbd53cca8	-0.051708847
12	0x3c0b9fdb	0.008521999
13	0xbc900d72	-0.017584536
14	0xbd2d972f	-0.042380508
15	0xbd56de69	-0.0524582

bn.running_mean f4 [16]
0	0xbcfc7356	-0.030816715
1	0x3e521bd9	0.20518436
2	0xbd0be914	-0.034157827
3	0x3c0cfb90	0.008604899
4	0xbc5eba8f	-0.013594284
5	0xbdb3e765	-0.087843694
6	0x3b91e325	0.0044521266
7	0xbe06779f	-0.1313157
8	0xbd8f5b00	-0.06999779
9	0xbd1fc974	-0.03901048
10	0xbdc8acef	-0.097986095
11	0xbdd440de	-0.10363935
12	0xbb096850	-0.0020966716
13	0xbd6617a7	-0.0561749
14	0xbd574b0f	-0.052561816
15	0xbe205981	-0.15659143

bn.running_var f4 [16]
0	0x3ca875c0	0.02056396
1	0x3e19a010	0.15002465
2	0x3ca9c988	0.02072598
3	0x3b87782c	0.0041341987
4	0x3ba9c96e	0.005181483
5	0x3d1cbe80	0.038267612
6	0x3c00ddca	0.007865379
7	0x3d7795f9	0.06044576
8	0x3ccb3885	0.024807224
9	0x3c8a3b8d	0.0168741
10	0x3d2b9290	0.04188782
11	0x3d625427	0.055256035
12	0x3c0cc984	0.008592967
13	0x3cab74c3	0.0209297
14	0x3cf9f567	0.030512525
15	0x3dc52b89	0.09627444

layer1.0.conv1.weight f4 [16, 16, 3, 3]
0	0x3d3d6557	0.046239223
1	0xbd62df20	-0.05538857
2	0x3dbe56ba	0.092938855
3	0x3c85f8a4	0.016353913
4	0x3ce0ee40	0.027457356
5	0x3cd5719f	0.026055155
6	0xbdd08ecd	-0.10183487
7	0xbd70fe26	-0.058836125
8	0x3da6a65c	0.08137199
9	0x3d4028de	0.046913974
10	0x3d4110f6	0.047135316
11	0xbb960615	-0.0045783618
12	0x3da4eff5	0.08053581
13	0xbd3349f0	-0.043771684
14	0xbcbfa011	-0.023391755
15	0xbd9ef5a1	-0.07761694
16	0x3b03e23c	0.002012386
17	0xbdc92155	-0.09820811
18	0xbd844bd7	-0.06459778
19	0x3c70f450	0.014706686
20	0x3d306ff4	0.043075517
21	0x3d0d34bf	0.03447413
22	0x3b889b6c	0.0041689184
23	0xbde78103	-0.11303904
24	0xbc67c29b	-0.014145519
25	0xbd8299be	-0.0637698
26	0xbd765607	-0.060140636
27	0x3d6b7ef2	0.05749411
28	0x3c58f25a	0.013241375
29	0x3bc94e59	0.006143373
30	0x3d718661	0.058966044
31	0xbd6c331d	-0.057665933
32	0xbdbc7131	-0.09201277
33	0xbd13f099	-0.036118124
34	0xbdacc42a	-0.08435853
35	0x3d1ab451	0.03776962
36	0xbcd8f712	-0.026485
37	0x3d8a3b20	0.067495584
38	0x3c70c198	0.014694594
39	0x3d2d51db	0.04231439
40	0xbc5c1440	-0.013432562
41	0xbd934325	-0.07190541
42	0xbd77e3d4	-0.06052001
43	0xbc9e5e98	-0.019332215
44	0xbca188bc	-0.01971852
45	0x3b0a3177	0.0021086612
46	0x3c19c902	0.009386303
47	0xbd8a9829	-0.067673035
48	0x3cdf4e21	0.027258934
49	0x3cb995bb	0.022654405
50	0x3cdb7f19	0.026794003
51	0xbd942159	-0.07232923
52	0xbdd0b038	-0.10189861
53	0xbd24c053	-0.040222477
54	0x3d09941c	0.033588514
55	0xbd8fea34	-0.070270926
56	0x3d8c0301	0.068365104
57	0xbce25a30	-0.027630895
58	0xbdb56728	-0.08857566
59	0x3dbdcac8	0.09267193
60	0xbe0e3429	-0.13887085
61	0xbd1770c1	-0.036972765
62	0x3d407b34	0.046992496
63	0xbce1eaa7	-0.027577711
64	0x3bea2750	0.0071457997
65	0x3d2f8133	0.042847823
66	0xbd9a0b29	-0.0752166
67	0x3d6a89cc	0.05726032
68	0x3dcdeb74	0.10054675
69	0xbd0aaaf6	-0.033854447
70	0xbd637418	-0.055530638
71	0x3cd81bf7	0.026380522
72	0x3c09d1da	0.008411849
73	0x3d7a0233	0.061037254
74	0x3c964883	0.018345123
75	0x3cb7882a	0.022403795
76	0x3cc4daea	0.024030168
77	0xbcd05210	-0.025429755
78	0xbdbd2784	-0.09236053
79	0xbdb27c5b	-0.08715125
80	0xbc2fb70a	-0.010724792
81	0x3df1b763	0.11802556
82	0x3d0a17d1	0.03371412
83	0x3aaaa21a	0.0013018281
84	0xbbd97123	-0.0066358014
85	0x3d350be4	0.044200793
86	0xbd997df1	-0.074947245
87	0x3d9a35c3	0.075297855
88	0x3d74c63c	0.059759364
89	0xbdc936c3	-0.09824898
90	0xbdec6c9f	-0.11544155
91	0x3b40e410	0.002943281
92	0xbbde7c4f	-0.006789721
93	0xbd5db9fe	-0.054132454
94	0xbd4a3ca8	-0.049374253
95	0x3c1c7542	0.009549441
96	0xbde85f54	-0.113463074
97	0xbd94ea52	-0.072712556
98	0xbd84f469	-0.0649193
99	0xbd470747	-0.048590925
100	0xbc9d1796	-0.019176286
101	0x3dd23afc	0.102651566
102	0x3b53f816	0.0032343916
103	0xbd25e54f	-0.04050189
104	0x3d343deb	0.044004362
105	0xbda96e3b	-0.08272978
106	0xbcef2ead	-0.029197061
107	0x3da378ad	0.079820015
108	0x3d02395c	0.031792983
109	0x3daa6768	0.083205044
110	0x3c6bb902	0.014387371
111	0x3a0f5902	0.000546828
112	0xbd3f870e	-0.046759658
113	0x3d2b1f70	0.041778028
114	0xbdb1c540	-0.086802006
115	0xbd27fff3	-0.041015577
116	0xbe08b2f4	-0.13349515
117	0xbd5eaf48	-0.05436638
118	0xbd85a3ac	-0.065253586
119	0xbe33f948	-0.17575562
120	0xbddf712f	-0.1091026
121	0xbce94522	-0.028475348
122	0xbd9d4f6d	-0.07681165
123	0xbdacf2d3	-0.084447525
124	0xbd2188b6	-0.03943702
125	0x3dbe3a8d	0.092885114
126	0x3d812a74	0.063069254
127	0x3d971deb	0.07378753
128	0xbca5b37f	-0.020227192
129	0x3d136a94	0.035990313
130	0xbd4b6063	-0.04965247
131	0x3d980317	0.07422464
132	0x3ce73c38	0.028226957
133	0xbc5562ae	-0.013024015
134	0x3d17cb7d	0.037059296
135	0xbda89b03	-0.08232691
136	0x3d5e6b5a	0.054301597
137	0x3c6a3a9a	0.014296198
138	0xbd4d2cbc	-0.05009149
139	0x3ccfdf9d	0.025375182
140	0x3d63935f	0.055560466
141	0xbe01783e	-0.12643525
142	0xbdb5e065	-0.088806905
143	0xbda8ecf8	-0.08248323
144	0xbda55557	-0.08072918
145	0x3d59adc9	0.05314425
146	0x3d8d70c9	0.06906278
147	0x3d24455f	0.04010522
148	0xbd054f38	-0.032546252
149	0xbdb0d1ba	-0.08633752
150	0x3c83630c	0.01603844
151	0xb953e409	-0.00020207478
152	0xb9e91aea	-0.00044461276
153	0xbd1f2be4	-0.038860217
154	0xbd86fd5a	-0.06591292
155	0xbdccfd95	-0.100093044
156	0xbc129f03	-0.008949044
157	0xbc91b144	-0.017784722
158	0x3ca290e1	0.019844474
159	0x39f7786c	0.00047201233
160	0xbcbc79e8	-0.023007348
161	0xbd9974f4	-0.0749301
162	0xbd18083e	-0.037117235
163	0xbcdba6c6	-0.026812922
164	0xbbdaeb5a	-0.006680888
165	0xbd0e6e32	-0.03477306
166	0x3d45017b	0.048097115
167	0x3d6f199d	0.058374036
168	0x3d8d5df1	0.069026835
169	0x3c876a73	0.016530251
170	0x3dbe3d3a	0.09289022
171	0xbdef02ed	-0.1167048
172	0xbdc260de	-0.09491132
173	0xbd0ae0d9	-0.033905838
174	0x3d4eeb90	0.05051762
175	0xbcb7a193	-0.022415912
176	0x3caa1dcf	0.020766167
177	0x3d70ec1f	0.058818933
178	0x3d8e2db1	0.06942309
179	0xbdacd54b	-0.0843912
180	0xbdd3def6	-0.10345261
181	0xbd42500b	-0.047439616
182	0xbbf38829	-0.007432003
183	0xbc9715a2	-0.018442933
184	0x3d6d14d8	0.057881206
185	0x3dc5fc16	0.09667222
186	0xbba91ecb	-0.0051611415
187	0x3cb9662a	0.022631723
188	0x3dcaf351	0.0990969
189	0xbd3156fd	-0.04329585
190	0x3ddfb64e	0.10923444
191	0x3d13e931	0.03611106
192	0x3b8aca56	0.004235546
193	0xbcb283bc	-0.021791331
194	0xbdefab1c	-0.117025584
195	0xbcf8b59e	-0.03036004
196	0x3c1f6012	0.009727495
197	0x3ce2acb4	0.027670242
198	0x3d026f2f	0.031844314
199	0x3d0a4ffa	0.033767678
200	0xbc605102	-0.013691189
201	0xbc23e5c3	-0.01000351
202	0xbd47c528	-0.048772007
203	0x3c94d98a	0.018170137
204	0xbc065200	-0.008198261
205	0x3c13f851	0.009031371
206	0x3cef056b	0.029177388
207	0x3de7fd29	0.11327583
208	0xbc34544b	-0.011006425
209	0xbd3334af	-0.043751415
210	0x3cfdff1d	0.031005437
211	0x3dae586a	0.085129574
212	0xbcaa275b	-0.02077072
213	0x3d1c672e	0.038184337
214	0x3c3b0917	0.011415741
215	0x3c5d0c26	0.013491666
216	0xbd7344e2	-0.059391864
217	0x3d92fa8f	0.071766965
218	0x3d76df28	0.060271412
219	0xbb0ace81	-0.0021180215
220	0x3d108a24	0.03528799
221	0xbd8c05ef	-0.06837069
222	0x3a952015	0.0011377359
223	0x3d4a7958	0.04943213
224	0x3d126890	0.03574425
225	0xbd0984c5	-0.033573885
226	0x3c86bf7e	0.016448732
227	0x3dbd41c5	0.0924106
228	0x3ce11721	0.027476849
229	0x3c99120e	0.018685367
230	0x3d5d31f7	0.05400273
231	0xbda4663a	-0.08027311
232	0x3d22a044	0.039703622
233	0x3c7dca4c	0.015490126
234	0x3db1bef6	0.08679001
235	0x3d942dd0	0.072353005
236	0x3d964161	0.07336689
237	0x3d9d1872	0.07670678
238	0x3cd9d180	0.026589155
239	0xbd349ff9	-0.044097874
240	0x3d6ea827	0.05826583
241	0x3c636cb5	0.013880898
242	0x3cb6de37	0.022322757
243	0xbc87bfcc	-0.016570948
244	0xbd205c82	-0.039150722
245	0x3d7a6b14	0.061137274
246	0x3dd66fd5	0.10470549
247	0xbb33052f	-0.0027316322
248	0x3ce32f7a	0.0277326
249	0xbc1846bb	-0.009294207
250	0xbd018e3b	-0.031629782
251	0x3c4689c1	0.012117804
252	0xbd83ed0e	-0.06441699
253	0xbd9cad5f	-0.076502554
254	0xbc82fd95	-0.015990058
255	0xbccff253	-0.025384104

layer1.0.bn1.weight f4 [16]
0	0x3f869381	1.0513765
1	0x3f7ae831	0.98010546
2	0x3f7d8da1	0.99044234
3	0x3f756890	0.95862675
4	0x3f82cea7	1.0219315
5	0x3f82b6de	1.0212057
6	0x3f832de2	1.0248377
7	0x3f7a60e6	0.97804105
8	0x3f7e9a61	0.99454314
9	0x3f68ed1c	0.909868
10	0x3f87ba92	1.0603812
11	0x3f81abb3	1.0130523
12	0x3f843c83	1.0330967
13	0x3f87905b	1.0590929
14	0x3f808b82	1.0042574
15	0x3f70d043	0.9406778

layer1.0.bn1.bias f4 [16]
0	0x3cdd22c0	0.02699411
1	0xbd5efce7	-0.054440405
2	0xbd1a53b5	-0.037677485
3	0xbdb2c9dc	-0.08729908
4	0x3d4ad846	0.04952266
5	0x3da10057	0.07861393
6	0x3cafacf3	0.021444773
7	0xbd2f8fde	-0.04286181
8	0xbd027304	-0.03184797
9	0xbdcbe1a5	-0.09955148
10	0xbdd630a6	-0.10458498
11	0x3c3b2d02	0.011424305
12	0x3c010bc4	0.00787634
13	0x3d11c7bb	0.03559087
14	0xbddb1ba4	-0.106986314
15	0xbd9d0353	-0.0766665

layer1.0.bn1.running_mean f4 [16]
0	0xbf0e8f73	-0.55687636
1	0x3e477bab	0.1948077
2	0x3de5671d	0.11201308
3	0x3deff964	0.11717489
4	0x3e0f6e28	0.14006865
5	0xbf478355	-0.7793477
6	0xbf0a4a00	-0.54019165
7	0xbe124ce3	-0.14287142
8	0xbe1dc783	-0.15408139
9	0xbece9a49	-0.40352085
10	0xbe429f0a	-0.19005981
11	0xbf25738b	-0.6462943
12	0xbe41543a	-0.18879786
13	0x3d9c85d9	0.07642717
14	0xbecf7e9d	-0.40526286
15	0xbf42491e	-0.7589282

layer1.0.bn1.running_var f4 [16]
0	0x3e2cad27	0.16862927
1	0x3e89de63	0.2692748
2	0x3e43f171	0.19135071
3	0x3db019ce	0.08598672
4	0x3e973197	0.29530022
5	0x3e8be7e9	0.2732537
6	0x3e68937a	0.22712508
7	0x3e94e0c4	0.29077733
8	0x3dedd74d	0.11613331
9	0x3e7a606e	0.24450848
10	0x3e4dcfdd	0.20098825
11	0x3e2fe360	0.1717658
12	0x3decfffa	0.11572261
13	0x3e781e7d	0.2423038
14	0x3ddaeb3f	0.10689401
15	0x3eaecf6e	0.3414263

layer1.0.conv2.weight f4 [16, 16, 3, 3]
0	0xbd15ac6f	-0.0365414
1	0x3be04fba	0.0068454416
2	0x3d6ecc36	0.05830022
3	0x3cd364ad	0.025804842
4	0xbc142050	-0.009040907
5	0x3d82480a	0.063613966
6	0xbd389545	-0.04506423
7	0xbd33c6cf	-0.04389077
8	0xbc8b6e78	-0.017020449
9	0xbd4ef40e	-0.050525717
10	0xbdc9f9a0	-0.09862065
11	0xbbfd01d8	-0.007721167
12	0xbd8dede7	-0.06930142
13	0xbb962324	-0.004581826
14	0xbc2ad353	-0.01042636
15	0x3c99cd27	0.018774582
16	0x3d4f4545	0.05060317
17	0x3c757f7b	0.014984007
18	0x3c0903ec	0.008362751
19	0xbd37e2f3	-0.04489417
20	0xbdc94b9d	-0.09828875
21	0x3d877ea4	0.06615952
22	0x3cfcc940	0.030857682
23	0x3d2857fb	0.04109953
24	0xbdaab497	-0.08335226
25	0x3d56d9a8	0.052453667
26	0x3d5d9148	0.05409363
27	0xbc3e4617	-0.01161339
28	0x3d7b99a4	0.06142582
29	0xbd6548ee	-0.055977754
30	0x3d295cba	0.041348197
31	0x3d3287d4	0.043586567
32	0x3c5e9797	0.0135859465
33	0xbdada6c8	-0.084790766
34	0xbd624180	-0.055238247
35	0x3d0d3a90	0.034479678
36	0xbdded12e	-0.108797416
37	0xbdbf573a	-0.09342809
38	0xbd9f94b0	-0.07792032
39	0x3cc11fa0	0.02357465
40	0xbd396e94	-0.04527147
41	0x3d48a185	0.048982162
42	0xbd95ff95	-0.07324139
43	0xbb9a28b9	-0.0047045616
44	0x3da3ac4e	0.07991849
45	0x3d51c522	0.05121339
46	0xbd08b4aa	-0.03337542
47	0xbd5dbe27	-0.05413642
48	0xbd2df6c2	-0.042471655
49	0xbb4eacd1	-0.0031536112
50	0xbd94a6ad	-0.072583534
51	0x3cf38d2f	0.029730408
52	0xbcf048c8	-0.02933158
53	0x3cfbb0fb	0.03072404
54	0xbc00678f	-0.00783719
55	0x3c48a85a	0.012247169
56	0x3d9f2868	0.07771379
57	0x3d0517e5	0.03249349
58	0x3d4a9a48	0.04946354
59	0x3db7cb9c	0.08974382
60	0x3d82b62b	0.06382402
61	0x3d576a4c	0.052591607
62	0x3d97a357	0.074042015
63	0xbd1e19b1	-0.03859872
64	0xbcedbca5	-0.029020617
65	0x3dd12a59	0.10213155
66	0xbcb58aaf	-0.022160856
67	0x3d178bfd	0.036998738
68	0x3d05c4d4	0.032658413
69	0x3d830b4d	0.0639864
70	0x3d32892a	0.04358784
71	0x3cd3138f	0.025766162
72	0x3d1cf790	0.03832203
73	0xbd00c193	-0.031434607
74	0xbe0bbf45	-0.13647182
75	0x3cfbf22d	0.030755127
76	0xbdcf92eb	-0.10135444
77	0xbd30ab80	-0.043132305
78	0xbe14af90	-0.14520097
79	0xbe0c7ef3	-0.13720302
80	0xbdf57320	-0.11984849
81	0xbcf2c2d1	-0.029633911
82	0xbda1db08	-0.07903105
83	0x3c32cf9f	0.010913759
84	0xbb040ded	-0.0020149902
85	0xbd95e4da	-0.073190406
86	0x3c7cd7e4	0.015432332
87	0xbd210b31	-0.039317314
88	0xbd2bb09c	-0.041916475
89	0xbdefb0d2	-0.11703648
90	0x3dd821d3	0.105533265
91	0x3dd2134c	0.10257587
92	0xbd53619e	-0.051606767
93	0xbcdd3787	-0.027004017
94	0xbd8e8791	-0.06959451
95	0xbd9116b2	-0.07084407
96	0xbdca5ed6	-0.0988137
97	0xbd73ffab	-0.059569996
98	0xbdc604f2	-0.09668912
99	0x3dbb461d	0.091442324
100	0x3dc1bf87	0.09460359
101	0x3de183c4	0.110114604
102	0xb980ba4d	-0.00024552867
103	0xbdbc5e64	-0.09197691
104	0x3ccdc245	0.025117049
105	0xbd782b2a	-0.06058804
106	0x3c66f5ca	0.014096687
107	0xbd22baa0	-0.03972876
108	0xbcf26d17	-0.029593034
109	0xbd59c63d	-0.05316757
110	0x3dceaeba	0.1009192
111	0xbc01e49c	-0.00792804
112	0xbc92f1bd	-0.017937535
113	0x3debd60f	0.11515438
114	0x3d7986a5	0.060919423
115	0xbd359f28	-0.044341236
116	0xbc956036	-0.018234354
117	0xbdf82f3f	-0.121183865
118	0xbe037027	-0.12835751
119	0xbd0427fa	-0.032264687
120	0xbcf38cde	-0.029730257
121	0x3c3ea829	0.011636772
122	0xbd4770f0	-0.04869169
123	0xbdd7351f	-0.10508179
124	0xbcaa057b	-0.020754566
125	0x3d23379a	0.039847948
126	0x3d83687d	0.06416414
127	0xbc418f29	-0.011813917
128	0x3ded01b5	0.11572591
129	0xbd0cc298	-0.034365267
130	0xbc56f6e3	-0.013120386
131	0x3d374caa	0.044750847
132	0xbd9442dc	-0.07239315
133	0xbd0f2434	-0.034946635
134	0x3d3edda6	0.0465981
135	0x3b58e54d	0.0033095658
136	0xbbc94590	-0.0061423257
137	0x3c9812e5	0.018563697
138	0xbd048521	-0.032353524
139	0xbccf7f58	-0.025329277
140	0xbc8ac33d	-0.0169388
141	0xbdd17d50	-0.102289796
142	0x3c0479fb	0.008085723
143	0xbdae8a62	-0.08522488
144	0x3d5a66c3	0.053320657
145	0x3d9c69d3	0.07637372
146	0xbd533f6a	-0.05157415
147	0x3d471f99	0.04861412
148	0x3da2de17	0.079525165
149	0x3d8a17e4	0.06742838
150	0x3e2c5167	0.16827928
151	0x3dead688	0.114667
152	0x3d29e4db	0.04147802
153	0xbd5a48f8	-0.053292245
154	0x3dc2daed	0.09514413
155	0x3dfece01	0.12441636
156	0xbcd86e1a	-0.026419688
157	0x3de1f48c	0.11032972
158	0x3de3f8c5	0.111314334
159	0xbc08226e	-0.00830899
160	0x3d142a10	0.036172926
161	0x3cc88392	0.0244768
162	0xbbb22bb3	-0.0054373383
163	0xbcf2bf8b	-0.02963235
164	0x3d8d10ed	0.06887994
165	0x3c8b797c	0.017025702
166	0x3cd36c94	0.02580861
167	0x3d9499f5	0.072559275
168	0x3d04e0a3	0.032440793
169	0x3c43dfd8	0.011955224
170	0x3d874e07	0.066066794
171	0xbc9996a8	-0.018748596
172	0xbd90b997	-0.070666485
173	0x3c955c9d	0.018232638
174	0xbb95ae31	-0.0045678844
175	0xbd45ced0	-0.048292935
176	0xbdbba6ff	-0.09162711
177	0x3c07894f	0.008272483
178	0xbdd60aec	-0.10451302
179	0xbd4bcb03	-0.049754154
180	0x3e013dff	0.12621306
181	0xbc9a33b6	-0.018823486
182	0x3d8638b5	0.06553785
183	0x3da2b2aa	0.07944234
184	0x3d226ff7	0.03965756
185	0x3cbc3eab	0.022979101
186	0x3d1d5f53	0.038420986
187	0x3cc7e273	0.024399972
188	0x3aab066d	0.001304818
189	0x3d096c30	0.03355044
190	0xbce8edd1	-0.028433712
191	0x3d97eb9e	0.07417987
192	0x3caed344	0.021340974
193	0xbc113e53	-0.008864957
194	0x3db13dd6	0.086543724
195	0xbd6a5103	-0.057206165
196	0x3adb6f4e	0.0016741545
197	0x3cfb9744	0.030711778
198	0xbdb77722	-0.0895827
199	0xbce47001	-0.027885439
200	0x3d61c916	0.05512341
201	0x3d81dd05	0.06340984
202	0xbdab6321	-0.08368517
203	0x3d8a97c5	0.06767229
204	0xbc15bfb0	-0.00913994
205	0xbcd415a8	-0.025889233
206	0x3ccedbe8	0.025251344
207	0xbcdf9f16	-0.027297538
208	0xbd07532f	-0.033038314
209	0xbd90eed9	-0.070768066
210	0xbd6896a8	-0.056784302
211	0xbceb3751	-0.0287129
212	0xbcff9e2d	-0.031203354
213	0xbd9631c4	-0.07333711
214	0xbd7c8803	-0.06165315
215	0xbd52db17	-0.05147847
216	0x3d180d0a	0.03712181
217	0x3d2daa68	0.04239884
218	0x3d2013cd	0.039081383
219	0xbdabaab1	-0.08382166
220	0xbdc355ea	-0.09537871
221	0x3d0a9a0a	0.03383831
222	0xbe03937c	-0.1284923
223	0xbdde2356	-0.108465835
224	0xbc95f916	-0.01830725
225	0xbc50b58a	-0.012738595
226	0xbd9b3c10	-0.075798154
227	0xbb29453e	-0.0025828625
228	0xbc9d683e	-0.019214746
229	0xbd63dd79	-0.055631135
230	0xbaf17b22	-0.0018423537
231	0x3ba08048	0.004898105
232	0x3d836c62	0.06417157
233	0x3d837b4a	0.0642
234	0xbba0f2b4	-0.004911745
235	0x3cc9438f	0.024568347
236	0xbc898f42	-0.016791943
237	0x3c9476b9	0.018123018
238	0x3d848e72	0.06472482
239	0x3b5aecb2	0.0033405242
240	0x3d5e286d	0.05423777
241	0x3b7c2c66	0.0038478612
242	0xbe150580	-0.1455288
243	0xbd4cbbaa	-0.049983658
244	0x3d0cb88a	0.034355678
245	0xbd808bf1	-0.06276692
246	0x3b9eadd9	0.0048425016
247	0xbd3c723a	-0.046007372
248	0xbd50e9f9	-0.051004384
249	0x3d5c0b75	0.053721864
250	0x3c962779	0.018329369
251	0xbd21d45d	-0.039509166
252	0xbdb78f46	-0.08962874
253	0xbb89a930	-0.004201077
254	0x3da1f307	0.07907682
255	0x3dab40db	0.083619796

layer1.0.bn2.weight f4 [16]
0	0x3f728935	0.9474061
1	0x3f6fc9ea	0.9366747
2	0x3f751ff2	0.9575187
3	0x3f8722b5	1.0557467
4	0x3f744f69	0.9543367
5	0x3f747cfc	0.9550321
6	0x3f850d6b	1.039472
7	0x3f7f78cc	0.99793696
8	0x3f8006e1	1.0002099
9	0x3f876cb9	1.0580055
10	0x3f8105d8	1.0079908
11	0x3f76b2dd	0.96366674
12	0x3f826df3	1.0189804
13	0x3f738d88	0.95137835
14	0x3f73ee6c	0.9528568
15	0x3f704f24	0.9387076

layer1.0.bn2.bias f4 [16]
0	0xbc3cc7be	-0.011522232
1	0xbd373992	-0.044732638
2	0xbd89b7ae	-0.06724487
3	0xbdeabfe3	-0.11462381
4	0xbde7a983	-0.11311629
5	0xbcc60b09	-0.024175184
6	0xbcfa4919	-0.030552434
7	0xbd6fd0cb	-0.05854873
8	0xbdfc8f62	-0.123320356
9	0x3d669f9b	0.056304555
10	0x3d8d33c1	0.06894637
11	0xbda8b2d7	-0.08237236
12	0xbd5acf5e	-0.053420417
13	0xbda6578e	-0.081221685
14	0xbcc4f5a5	-0.024042914
15	0xbdd0209f	-0.10162472

layer1.0.bn2.running_mean f4 [16]
0	0xbee2630d	-0.44216195
1	0x3e943901	0.2894974
2	0xbef9b556	-0.4877116
3	0xbdf6983a	-0.12040754
4	0x3d10c8a2	0.03534759
5	0x3c1e2e64	0.009654615
6	0xbf1cdf17	-0.6127791
7	0xbeb5c552	-0.35502106
8	0xbe1cb168	-0.1530205
9	0xbea3eed1	-0.3201814
10	0xbd0e9c43	-0.03481699
11	0xbe9bf7f3	-0.30462608
12	0xbea1066f	-0.3145022
13	0xbf2cee24	-0.67550874
14	0xbea35744	-0.31902516
15	0xbe9ba04c	-0.30395734

layer1.0.bn2.running_var f4 [16]
0	0x3f36a3a3	0.7134344
1	0x3f2a6408	0.66558886
2	0x3f0f29e7	0.5592331
3	0x3e7c9d51	0.24669386
4	0x3e9bc886	0.30426425
5	0x3f2ae76d	0.6675938
6	0x3ee7cccc	0.45273435
7	0x3eb6414b	0.3559669
8	0x3e888894	0.266667
9	0x3e8922ec	0.26784456
10	0x3f011dd3	0.50436133
11	0x3e62423c	0.22095579
12	0x3ef650ec	0.48108613
13	0x3f479282	0.7795793
14	0x3f24bacb	0.64347523
15	0x3f2354c1	0.638012

layer1.1.conv1.weight f4 [16, 16, 3, 3]
0	0xbd2e41bb	-0.042543154
1	0xbcf99a6f	-0.030469147
2	0x3d9737b7	0.07383674
3	0xbcddab84	-0.027059324
4	0x3db90d59	0.09035749
5	0x3d2a93ee	0.041644983
6	0xbd8c7245	-0.06857733
7	0x3d1c7254	0.03819497
8	0xbe030cc5	-0.1279784
9	0xbb14175e	-0.0022596936
10	0x3d948453	0.07251801
11	0xbae433d9	-0.0017410471
12	0xbcac3a55	-0.021023909
13	0x3cf0ce9c	0.029395394
14	0xbdec2c95	-0.11531941
15	0xbdb20363	-0.08692052
16	0x3d2ef84f	0.042717274
17	0xbd32009e	-0.04345762
18	0xbd2df4d7	-0.042469826
19	0xbd0e16dc	-0.03468977
20	0x3c6bef65	0.014400338
21	0xbae75ff5	-0.0017652499
22	0x3b9323e7	0.004490364
23	0x3dd22d86	0.10262589
24	0xbd87ec93	-0.0663692
25	0xbdce4c5c	-0.10073158
26	0xbbae2f60	-0.005315706
27	0xbda130ed	-0.0787066
28	0x3d811426	0.06302671
29	0xbdededa7	-0.11617594
30	0x3da0e85f	0.07856821
31	0xbd3c0b97	-0.04590949
32	0xbd8d013c	-0.06885001
33	0xbd9c3f4d	-0.07629261
34	0x3d023287	0.031786468
35	0x3ca69d2f	0.020338623
36	0x3d69744b	0.05699567
37	0xbd62e4d3	-0.055394005
38	0xbd8183d5	-0.06323973
39	0xbd6b6ab4	-0.057474807
40	0x3d47cee8	0.048781306
41	0xbd8b8a57	-0.068134956
42	0xba04048a	-0.0005036077
43	0x3d86b922	0.0657828
44	0xbc921871	-0.01783392
45	0x3b801781	0.003909052
46	0x3c9391b5	0.018013814
47	0x3cf60965	0.030033777
48	0x3b8f6d34	0.0043770317
49	0xbd019170	-0.03163284
50	0x3cf9c9c7	0.030491723
51	0xbd52c9d2	-0.051462002
52	0x3c40f953	0.0117781935
53	0xbdb13f82	-0.08654691
54	0x3da285bf	0.07935666
55	0xbd406d3e	-0.04697918
56	0xbd255ab9	-0.040369723
57	0xbb1a6312	-0.0023557586
58	0x3da1cb0b	0.079000555
59	0x3cd226a3	0.025653189
60	0x3db22893	0.08699145
61	0x3d96171d	0.07328627
62	0xbddc6782	-0.1076193
63	0x3cc35c4d	0.023847723
64	0x39afa20d	0.00033499338
65	0x3d959407	0.073036246
66	0x3b9ea33a	0.0048412355
67	0x3d5275e2	0.051381953
68	0xbd4d8295	-0.05017336
69	0x3cdef78c	0.027217649
70	0xbd63e329	-0.05563656
71	0xbd8d5fbf	-0.06903028
72	0x3c15bde9	0.009139516
73	0xbdd363b6	-0.10321753
74	0xbde4a381	-0.111639984
75	0xbdc1ce65	-0.09463195
76	0x3ceb6de3	0.028738922
77	0x3d9f73f0	0.07785785
78	0x3d75dc62	0.060024627
79	0x3cee2d48	0.029074326
80	0x3e02b87e	0.1276569
81	0xbc2b184b	-0.010442804
82	0x3cb19bbb	0.021680703
83	0x3ca049f5	0.019566515
84	0x3cfc088f	0.0307658
85	0xbd2778dc	-0.040886745
86	0x3d12dd84	0.035855785
87	0x3ac4e390	0.0015021432
88	0xbd6c6079	-0.05770919
89	0xbd8a1311	-0.06741918
90	0xbda06777	-0.07832234
91	0xbe0c6e7b	-0.1371402
92	0xbe3199fd	-0.17343898
93	0x3b17f358	0.0023185816
94	0xbd80ad03	-0.06282999
95	0x3d6ee54e	0.05832415
96	0x3dda521e	0.10660194
97	0x3cf6f150	0.030144364
98	0x3e45546e	0.19270489
99	0x3ce2ee97	0.02770166
100	0xbcedbaaa	-0.029019672
101	0xbd5022a8	-0.0508143
102	0xbd3dfb05	-0.04638197
103	0x3d65fd00	0.056149483
104	0xbd8d7dd8	-0.069087684
105	0x3cae2df2	0.021262143
106	0x3c43656b	0.011926035
107	0xbd4b63d7	-0.04965576
108	0xbd0d2d11	-0.034466807
109	0x3cc17c47	0.02361883
110	0xbd4a4ff2	-0.049392648
111	0x3d999261	0.07498623
112	0x3d3dd21a	0.046342947
113	0x3cf9aa51	0.030476721
114	0xbd2cf28b	-0.042223494
115	0xbb826d2c	-0.0039802995
116	0x3db7790c	0.08958635
117	0xbd59fbd9	-0.053218696
118	0x3d33ea32	0.043924518
119	0xbd8bb226	-0.068210885
120	0x3cca6e46	0.024710786
121	0x3d711dfe	0.058866493
122	0x3b44112d	0.0029917464
123	0xbd4cfb6a	-0.050044455
124	0x3d97f83e	0.07420395
125	0xbdbe8da6	-0.09304361
126	0xbc97aa1b	-0.01851373
127	0xbd581ce2	-0.05276192
128	0xbddb3d94	-0.107051045
129	0xbccaf76f	-0.024776189
130	0xbd738d84	-0.05946113
131	0xbcf47b62	-0.02984399
132	0x3d02ff35	0.031981666
133	0x3ccf3942	0.025295857
134	0xbd860c35	-0.06545297
135	0xbccf4b06	-0.025304329
136	0x3d77c5b0	0.060491264
137	0xbdd83660	-0.10557246
138	0x3d11d0aa	0.03559939
139	0xbdbb1319	-0.09134502
140	0xbd52b1bd	-0.051439036
141	0xbd4b7310	-0.04967028
142	0xbc654314	-0.013993043
143	0xbcadec33	-0.021230793
144	0x3c4dcda5	0.0125612365
145	0xbbad6b79	-0.0052923528
146	0xbde38da4	-0.11111
147	0xbb96fb86	-0.0046076206
148	0x3d2be74b	0.041968625
149	0xbdf7c4b4	-0.12098065
150	0x3d8baf0d	0.06820498
151	0x3cded003	0.027198797
152	0xbd81662b	-0.06318315
153	0xbd6af101	-0.057358745
154	0x3d94ab04	0.07259181
155	0xbc31e222	-0.010857137
156	0xbce26a85	-0.027638683
157	0xbc583ae3	-0.013197633
158	0x3c99b00a	0.0187607
159	0xbd321233	-0.043474387
160	0xbd87dcc2	-0.06633903
161	0xbd250f62	-0.040297873
162	0x3d931ae7	0.071828656
163	0xbb6677fa	-0.0035166726
164	0x3c19a4de	0.009377686
165	0x3dab519d	0.08365176
166	0xbb36a540	-0.0027869493
167	0xbd9c2b25	-0.07625417
168	0x3da3a461	0.07990337
169	0xbce1a6f6	-0.027545433
170	0xbda76c9a	-0.08175011
171	0x3d6ef532	0.058339305
172	0x3d96d524	0.07364872
173	0x3c9a5ad5	0.01884214
174	0x3dcee71a	0.10102673
175	0xbcf31307	-0.029672159
176	0x3e024686	0.12722215
177	0x3dc0ab3b	0.094076596
178	0x3dca45f8	0.09876627
179	0x3e10481a	0.14090005
180	0xbd984230	-0.07434499
181	0xbcdf7844	-0.027279027
182	0x3d2265b3	0.03964777
183	0xbdbd695c	-0.09248611
184	0xbdc73227	-0.09726363
185	0xbc2b6697	-0.010461471
186	0x3da3a920	0.079912424
187	0xbd75695d	-0.059914935
188	0xbe1b7f3b	-0.15185253
189	0xbd87faae	-0.0663961
190	0x3c45515f	0.012043326
191	0xbda6bfa2	-0.0814202
192	0xbc1a0ee2	-0.009402962
193	0xbd825909	-0.06364638
194	0xbb667db3	-0.0035170137
195	0xbdc68ea9	-0.09695179
196	0x3cb86bc1	0.022512319
197	0xbdf01907	-0.117235236
198	0x3c448923	0.011995587
199	0x3c8b3fc4	0.01699818
200	0xbd5ea8eb	-0.05436031
201	0xba8ed32c	-0.0010896674
202	0xbd4f65a3	-0.050634038
203	0xbd671241	-0.056413893
204	0xbd0343ba	-0.03204701
205	0xbdc689de	-0.09694265
206	0xbe3308e6	-0.17483863
207	0xbccf0616	-0.025271457
208	0xbd80df86	-0.06292634
209	0xbd1c5107	-0.03816321
210	0x3a04abf6	0.00050610246
211	0x3cb3a2b9	0.021928178
212	0xbe115bac	-0.14195126
213	0xbdeedbd4	-0.11663023
214	0xbdb48d01	-0.08815957
215	0xbd669b8b	-0.05630068
216	0x3daa11a9	0.0830415
217	0x3d5eff32	0.054442592
218	0xbdba7c2c	-0.09105715
219	0x3cd753f8	0.026285157
220	0x3d0af51e	0.03392517
221	0xbda866ab	-0.08222707
222	0xbcc6659a	-0.02421837
223	0x3d071808	0.032981902
224	0xbdda9b8b	-0.10674199
225	0xbaca6d18	-0.001544389
226	0x3d0da29b	0.0345789
227	0xbd76ebcc	-0.060283467
228	0xbcaf24c8	-0.021379843
229	0x3cb83609	0.022486703
230	0xbcb5554b	-0.022135397
231	0x3dd5fb53	0.10448327
232	0x3e0c3ed9	0.1369585
233	0xbced3f4d	-0.028960848
234	0xbdd902c6	-0.10596232
235	0xbc0a83c9	-0.008454272
236	0x3bb9f879	0.005675372
237	0xbd620924	-0.0551845
238	0xbc6f7f3d	-0.014617738
239	0x3dacff41	0.08447123
240	0x3d8c8d63	0.06862905
241	0xbbdab17d	-0.0066739903
242	0x3dc7e482	0.09760381
243	0x3cd9f39f	0.026605425
244	0x3d79032c	0.06079404
245	0x3ccfabc1	0.025350453
246	0x3d9d4007	0.07678228
247	0xbd0ba532	-0.03409309
248	0xbc2659a9	-0.010153213
249	0x3d5c9e0b	0.05386166
250	0xbd9bfdab	-0.07616743
251	0x3c35074c	0.011049103
252	0xbd85ee88	-0.06539637
253	0x3bd9f091	0.006650992
254	0xbe27f5fe	-0.16402432
255	0xbd857a03	-0.065174125

layer1.1.bn1.weight f4 [16]
0	0x3f8834ba	1.0641091
1	0x3f73c56f	0.95223135
2	0x3f87789e	1.0583684
3	0x3f7bf150	0.9841509
4	0x3f77a6bc	0.9673879
5	0x3f7f793d	0.9979437
6	0x3f7cade8	0.9870286
7	0x3f8c6734	1.0968995
8	0x3f79d5dc	0.9759195
9	0x3f7bfc8e	0.9843224
10	0x3f6a872e	0.9161252
11	0x3f7f7b51	0.9979754
12	0x3f769732	0.96324456
13	0x3f7f7ece	0.99802864
14	0x3f8597b6	1.0436924
15	0x3f7cd48b	0.98761815

layer1.1.bn1.bias f4 [16]
0	0xba8528c2	-0.0010159242
1	0xbdf6ecda	-0.120568946
2	0xbb32f1ed	-0.0027304844
3	0xbad539f4	-0.0016267882
4	0xbdf6ea71	-0.12056435
5	0xbcd0e61e	-0.025500353
6	0xbca7ddd5	-0.02049152
7	0x3caa36e1	0.020778121
8	0xbd34ba88	-0.044123203
9	0xbdc285a7	-0.094981484
10	0xbdb94129	-0.090456314
11	0xbcdfdbf1	-0.027326556
12	0xbd981e99	-0.07427711
13	0xbe1aead6	-0.15128645
14	0xbcbaa110	-0.022781879
15	0xbd8c88d3	-0.06862035

layer1.1.bn1.running_mean f4 [16]
0	0xbf1f3094	-0.621835
1	0xbf79e118	-0.9760909
2	0xbf3c2f8f	-0.7351007
3	0xbf0a377a	-0.539909
4	0x3f242fc0	0.6413536
5	0xbfa0078c	-1.2502303
6	0xbf6d8a68	-0.92789316
7	0x3e39c15f	0.18140171
8	0x3bcb8529	0.0062109423
9	0x3f182dc5	0.5944484
10	0x3f13b334	0.5769532
11	0x3e6ef8d9	0.23337115
12	0xbf997cf6	-1.199126
13	0xbf89e8cb	-1.0774168
14	0xbf27bd1c	-0.65522933
15	0xbe9ad17f	-0.30237958

layer1.1.bn1.running_var f4 [16]
0	0x3e9489a6	0.29011267
1	0x3ed9bdc4	0.42527592
2	0x3e76b275	0.24091513
3	0x3ede5e82	0.4343148
4	0x3ec0dce0	0.37668514
5	0x3ef64382	0.4809838
6	0x3f157c1b	0.58392495
7	0x3f1b1a7a	0.60587275
8	0x3ef73be5	0.48287883
9	0x3f1bdde1	0.60885435
10	0x3f46388b	0.7743003
11	0x3eecae87	0.46226904
12	0x3f0819ea	0.5316454
13	0x3e855174	0.26038706
14	0x3ec2eccc	0.38071287
15	0x3eb12d44	0.34604847

layer1.1.conv2.weight f4 [16, 16, 3, 3]
0	0xbd099c40	-0.033596277
1	0x3c74777e	0.014921067
2	0xbd1afaba	-0.037836768
3	0x3dbf3845	0.093369044
4	0x3d26f068	0.040756613
5	0xbd65fc37	-0.056148734
6	0xbd102768	-0.03519383
7	0x3d07b699	0.033133123
8	0xbe190a2b	-0.14945285
9	0x3d8c2915	0.06843773
10	0x3d289300	0.041155815
11	0x3d701507	0.058613803
12	0xbb90b778	-0.0044164024
13	0xbc05d659	-0.00816878
14	0x3db75437	0.089516096
15	0xbd7ffbed	-0.062496115
16	0xbd198425	-0.03747954
17	0xbdcf8555	-0.10132853
18	0x3cf38c17	0.029729886
19	0xbc7e744e	-0.015530659
20	0x3d63f85a	0.05565677
21	0x3dd66d13	0.10470023
22	0x3d9baff2	0.07601918
23	0xbc213f0f	-0.0098416945
24	0xbdad327c	-0.08456895
25	0x3d98681d	0.07441733
26	0x3c98113d	0.018562907
27	0x3d08bccf	0.033383187
28	0x3ce2a5fc	0.027667038
29	0x3c84646b	0.016161164
30	0x3d422165	0.04739513
31	0x3dada6d6	0.08479087
32	0x3c87c8bb	0.016575208
33	0xbc3d46ea	-0.011552552
34	0x3d9852f6	0.074376985
35	0x3de0d22c	0.10977587
36	0x3dd0e21a	0.101993755
37	0x3c9a5ef2	0.018844102
38	0x3c3c4984	0.011492137
39	0xbc1ff2fc	-0.009762522
40	0xbd288249	-0.041139875
41	0xbc0f642f	-0.008751913
42	0x3c75fcc9	0.015013882
43	0xbd5c6337	-0.053805556
44	0xbdb7f829	-0.0898288
45	0xbd0e78b5	-0.034783084
46	0xbcab8cbf	-0.020941136
47	0xbdb616c1	-0.08891059
48	0xbdbe13d8	-0.09281129
49	0x3ccf2282	0.02528501
50	0xbb789219	-0.0037928878
51	0xbd84d018	-0.06485003
52	0xbd970f36	-0.07375948
53	0xba76278b	-0.00093900476
54	0xbdf3e226	-0.11908369
55	0x3ccbcccd	0.02487793
56	0x3b10bd72	0.0022085574
57	0x3d0c6670	0.03427738
58	0x3d624bee	0.055248193
59	0x3dce4914	0.10072532
60	0xbd5bee6c	-0.053694174
61	0x3d92faed	0.071767665
62	0x3d28c841	0.041206602
63	0xbd017128	-0.031602055
64	0xbd8e681a	-0.069534495
65	0xbcaca9fe	-0.021077152
66	0xbbe974e6	-0.007124531
67	0x3cb4f542	0.022089604
68	0xbc83045c	-0.01599329
69	0x3d07963e	0.033102266
70	0x3d604369	0.054751787
71	0x3daafd79	0.08349127
72	0xbd09b1aa	-0.0336167
73	0x3d5a13dd	0.0532416
74	0x3d749eda	0.059721805
75	0xbd35759c	-0.044301614
76	0xbd83dc41	-0.064384945
77	0xbd3f159a	-0.04665146
78	0xba92e7cd	-0.0011207998
79	0x3bb01393	0.005373427
80	0xbd636fa2	-0.055526383
81	0xbc74ea12	-0.014948385
82	0x3d9f4da4	0.07778481
83	0xbcb3126b	-0.021859368
84	0xbddfc6d2	-0.10926594
85	0xbcf50837	-0.029911144
86	0xbd354bc3	-0.044261705
87	0xbda5c34f	-0.08093893
88	0xbdb570bf	-0.08859395
89	0xba7fd37b	-0.0009758991
90	0xbd57de57	-0.052702274
91	0xbc3c51f6	-0.01149415
92	0xbdabd342	-0.083899036
93	0x3b57f8f5	0.0032954786
94	0xbd97248c	-0.07380018
95	0x3d4a58e7	0.04940119
96	0xbd44f3c1	-0.048084024
97	0x3af90c1c	0.0019000801
98	0xbdde3dc5	-0.10851625
99	0x3d90b8aa	0.07066472
100	0x3db45f4d	0.0880724
101	0x3b82d7bb	0.003993002
102	0x3d91ab35	0.07112733
103	0x3d542a2f	0.051798042
104	0xbe0d6012	-0.13806179
105	0xbb4e0fa5	-0.003144243
106	0x3beba474	0.007191235
107	0xbdde0a6a	-0.1084183
108	0xbd798b06	-0.0609236
109	0x3ca76fcd	0.020439053
110	0x3c769d73	0.015052187
111	0xbd82bed1	-0.063840516
112	0xbd7c184d	-0.061546613
113	0x3d7b9ce9	0.061428938
114	0xbe121550	-0.14265943
115	0xbda2b177	-0.07944005
116	0xbd0aac2f	-0.033855613
117	0xbc821276	-0.015877943
118	0xbd7f1356	-0.0622743
119	0x3d10a2ba	0.03531144
120	0x3dadbe2e	0.084835395
121	0xbd8631e0	-0.06552482
122	0xbd8948e0	-0.06703353
123	0xbd63237e	-0.05545377
124	0xbcbc4c98	-0.022985741
125	0x3cb8be95	0.022551814
126	0x3d9eff75	0.07763568
127	0x3e06238e	0.130995
128	0x3d0cc2fe	0.034365647
129	0x3d85c36b	0.06531414
130	0x3ddce2ec	0.107854694
131	0x3c59d170	0.013294563
132	0x3d9b16d9	0.07572717
133	0x3de7a997	0.113116436
134	0x3d9a6291	0.07538331
135	0x3dbd349c	0.0923855
136	0x3df06ab8	0.11739105
137	0x3e09c243	0.13453011
138	0xbc7cffda	-0.015441859
139	0x3cb54da5	0.02213175
140	0xbc3588b0	-0.011079952
141	0xbc8ca011	-0.01716617
142	0xbd116fa5	-0.035506863
143	0xbd19d09c	-0.03755246
144	0xbcabbd88	-0.020964399
145	0x3d04cb45	0.032420415
146	0x3d190701	0.037360195
147	0xbca4493b	-0.02005445
148	0xbcdb8c10	-0.026800185
149	0xbdd05b0a	-0.10173614
150	0xbd561f81	-0.05227614
151	0xbd963274	-0.07333842
152	0xbe02e6f5	-0.12783416
153	0xbd50049b	-0.050785642
154	0xbcff7fec	-0.031188928
155	0xbd014eb2	-0.03156919
156	0x3de82e3c	0.113369435
157	0xbd4f5f70	-0.050628126
158	0xbd246c2f	-0.040142234
159	0xbd3f6305	-0.04672529
160	0x3d1d2a14	0.038370207
161	0xbc0c3198	-0.008556746
162	0x3cc3a28d	0.023881221
163	0x3d8a6765	0.06758002
164	0x3e0228c7	0.12710868
165	0x3d89e41d	0.06732962
166	0xb954bd5f	-0.00020288442
167	0x3e27dbdc	0.16392463
168	0x3d31d2c6	0.0434139
169	0x3da1a4b6	0.07892744
170	0x3e1bf79b	0.15231173
171	0x3cff98e8	0.031200841
172	0x3bb2924f	0.0054495702
173	0xbd027ab3	-0.031855296
174	0xbcdf0023	-0.027221745
175	0x3d86b03d	0.065765835
176	0x3dbf5289	0.09341914
177	0x3bf102e5	0.0073550814
178	0x3cdd6353	0.0270249
179	0xbca3a435	-0.019975761
180	0xbd4c1633	-0.04982586
181	0xbc851bda	-0.016248632
182	0xbda2f1bd	-0.07956264
183	0x3b9cc8b9	0.00478467
184	0x3e073bb6	0.13206372
185	0x3df411dc	0.11917469
186	0xbcc6b2ad	-0.024255121
187	0xbd7e411f	-0.062073823
188	0x3d97ba0f	0.07408535
189	0x3c9f80a5	0.019470522
190	0x3dbe0473	0.09278192
191	0x3cb7a822	0.02241904
192	0x3cce6b0a	0.025197525
193	0x3ddfe15f	0.10931658
194	0xbdaed0c1	-0.085359104
195	0x3d90446f	0.07044303
196	0x3ddbfcb0	0.10741556
197	0xbd81ae8f	-0.063321225
198	0x3d4f899a	0.050668336
199	0xbd80cdaa	-0.06289227
200	0x3cc277a9	0.023738699
201	0xbda0220d	-0.07818995
202	0x3c202ee8	0.009776808
203	0xbad8745a	-0.0016514168
204	0xbc17def9	-0.009269469
205	0x3d3e984b	0.046531957
206	0x3dad0d67	0.08449822
207	0xbd0067d9	-0.031349037
208	0xba4a6eca	-0.00077221973
209	0x3b9dc1c3	0.004814358
210	0xbd939e06	-0.07207875
211	0xbd735d6e	-0.059415273
212	0xbd7ec329	-0.062197838
213	0xbe4f8847	-0.2026683
214	0xbdf25674	-0.11832896
215	0xbe1e729c	-0.15473408
216	0xbd1f65eb	-0.038915556
217	0x3c3deb45	0.011591737
218	0xbd680afb	-0.056651097
219	0xbd5b65b8	-0.053563803
220	0x3d169c37	0.03677007
221	0xbbea8e9d	-0.007158114
222	0xbbf0c7f5	-0.0073480555
223	0xbd48882e	-0.048957996
224	0x3c531381	0.012883068
225	0xbdbbe762	-0.09174992
226	0x3ca91a7c	0.020642512
227	0x3cd4a276	0.025956374
228	0xbd21db49	-0.039515767
229	0x3bfa6c7d	0.0076423273
230	0x3c285aaa	0.010275522
231	0xbd90d4f2	-0.07071866
232	0x3c887295	0.0166562
233	0xbd8bcea8	-0.06826526
234	0x3daec924	0.08534458
235	0xbcaac24e	-0.020844605
236	0xbcf1144e	-0.029428627
237	0xbbfe5af0	-0.0077623054
238	0xbcccb21a	-0.02498727
239	0xbcffaa69	-0.031209188
240	0xbd1795cc	-0.03700809
241	0xbd664b9d	-0.056224454
242	0xbcfa3b11	-0.030545743
243	0xbcf5354b	-0.029932639
244	0xbd874c52	-0.06606354
245	0xbd850bf2	-0.06496419
246	0x3d1eb678	0.038748235
247	0xbc2f302e	-0.010692639
248	0x3b1c4383	0.002384395
249	0xbd118d39	-0.03553507
250	0x3bd5b642	0.006521971
251	0xbdb92b77	-0.090414934
252	0xbbb452a7	-0.005503017
253	0xbd2a1695	-0.041525442
254	0x3d0aff70	0.03393501
255	0x3cf2ea1b	0.029652646

layer1.1.bn2.weight f4 [16]
0	0x3f807e12	1.0038474
1	0x3f829d6f	1.0204295
2	0x3f80d399	1.0064574
3	0x3f8c5bd3	1.0965523
4	0x3f8eb84a	1.114999
5	0x3f8a59a0	1.0808601
6	0x3f8b5b78	1.0887289
7	0x3f84681a	1.0344269
8	0x3f8b29af	1.0872096
9	0x3f8b70bd	1.089378
10	0x3f924e49	1.1430141
11	0x3f89f33e	1.0777357
12	0x3f8083d4	1.0040231
13	0x3f8c8f34	1.0981202
14	0x3f88dfe6	1.0693328
15	0x3f843a69	1.0330325

layer1.1.bn2.bias f4 [16]
0	0xbdad1004	-0.0845032
1	0xbde52a37	-0.111896925
2	0xbbcf38ec	-0.0063239243
3	0xbce7e51b	-0.028307488
4	0xbd727321	-0.059191827
5	0xbc895641	-0.016764762
6	0x3bc96c82	0.0061469683
7	0xbd209dfd	-0.03921317
8	0xbd557b30	-0.052119434
9	0x3dfc4a09	0.123188086
10	0xbc97a748	-0.018512383
11	0xbd960513	-0.073251866
12	0xbd3e5021	-0.046463136
13	0x3d3e3dd3	0.04644568
14	0xbcd5ed28	-0.026114061
15	0xbd240981	-0.040048126

layer1.1.bn2.running_mean f4 [16]
0	0x3da1612e	0.07879864
1	0xbdb54bf4	-0.088523775
2	0x3d68cb5e	0.05683457
3	0x3ee5bd49	0.44870976
4	0xbf382620	-0.71933174
5	0x3d2467d0	0.040138066
6	0x3e1a000e	0.15039083
7	0xbd649305	-0.05580427
8	0x3e496eaf	0.19671129
9	0x3ef3946b	0.4757417
10	0xbf2b5d99	-0.66939694
11	0x3e58b2cc	0.21161956
12	0xbd99937d	-0.07498834
13	0x3e0bb3d2	0.13642815
14	0xbed68606	-0.41899127
15	0xbca31a88	-0.019910112

layer1.1.bn2.running_var f4 [16]
0	0x3ec3eb8b	0.38265643
1	0x3eb7777e	0.35833353
2	0x3e9580fc	0.2919997
3	0x3eeb94ae	0.4601187
4	0x3f020de4	0.50802445
5	0x3ed65d2b	0.41867957
6	0x3ecb84ad	0.3974966
7	0x3ebc97cf	0.3683457
8	0x3f031152	0.51198304
9	0x3e876250	0.26442194
10	0x3ed3e8a4	0.41388428
11	0x3e806a1c	0.25080955
12	0x3e9f0fef	0.31066844
13	0x3ecfff0a	0.40624267
14	0x3f0d52c9	0.55204445
15	0x3ee47687	0.4462168

layer2.0.conv1.weight f4 [32, 16, 3, 3]
0	0xbde1f4ed	-0.11033044
1	0xbd543106	-0.051804565
2	0xbb50befa	-0.0031852112
3	0xbda6d574	-0.08146182
4	0xbdcbdade	-0.09953855
5	0x3b58dbb9	0.003308995
6	0xbd291f4f	-0.041289624
7	0x3c923686	0.017848264
8	0x3d686d27	0.05674472
9	0xbc93ed24	-0.018057413
10	0xbd283376	-0.041064702
11	0x3d0e6ff2	0.034774728
12	0x3d554161	0.052064303
13	0x3dceeb87	0.10103517
14	0x3d9e92b6	0.07742827
15	0xbcdcc31b	-0.026948502
16	0x3dd62a29	0.1045726
17	0x3dc1eacd	0.09468613
18	0xbe244635	-0.16042407
19	0xbcf6359d	-0.030054862
20	0xbdc7ef8b	-0.09762486
21	0xbd21d811	-0.039512698
22	0xbc339a9d	-0.010962156
23	0xbd33bff3	-0.04388423
24	0x3dbe1e5a	0.09283133
25	0x3cdd0981	0.02698207
26	0x3db697bd	0.089156605
27	0x3d502ce3	0.050824057
28	0x3b29e1bd	0.0025921904
29	0x3c7ffccd	0.015624237
30	0xbc677632	-0.014127301
31	0x3d80900f	0.06277477
32	0x3d6802bc	0.056643233
33	0x3ba0961d	0.0049007074
34	0x3cf6b118	0.030113742
35	0xbc7f003e	-0.015564023
36	0x3cd12ab9	0.025533067
37	0xbc67fa86	-0.014158851
38	0xbd87f069	-0.066376515
39	0xbd033a42	-0.03203798
40	0xbbf5fcb7	-0.0075069326
41	0x3d185db6	0.037198745
42	0x3ddb709b	0.10714837
43	0x3da4a7d5	0.08039824
44	0x3d7e5554	0.062093094
45	0xbd7df042	-0.061996706
46	0xbd4b9036	-0.049698077
47	0x3dc3e08c	0.09564313
48	0x3c57505e	0.01314172
49	0x3d107c61	0.035274867
50	0x3e2325c3	0.15932374
51	0x3c1cc89e	0.009569315
52	0x3cd451a0	0.025917828
53	0x3d3ba021	0.045807008
54	0x3db266b7	0.087109976
55	0x3c3d529d	0.011555341
56	0xbe19b80e	-0.15011618
57	0x3dd86a7c	0.10567185
58	0x3d14e3c9	0.036350045
59	0xbdcc235e	-0.09967683
60	0x3d175b37	0.036952224
61	0xbcd07ca6	-0.025450062
62	0xbd6ec7d8	-0.058296055
63	0xbb20a711	-0.0024513642
64	0xbdc4c91e	-0.096086726
65	0x3c5048fe	0.012712715
66	0xbcdce329	-0.026963787
67	0xbd633a95	-0.05547579
68	0xbdaed5f3	-0.08536901
69	0xbd2d4eaa	-0.042311348
70	0xbd4376d4	-0.047720745
71	0xbc0c91ec	-0.008579712
72	0xbd424cdd	-0.047436584
73	0x3b14be38	0.0022696387
74	0x3d60a5bb	0.054845553
75	0xbdad463b	-0.08460661
76	0xbce5cd3d	-0.028051967
77	0x3bfebdfc	0.0077741127
78	0x3cdef3a6	0.02721579
79	0x3d2ce3f8	0.042209595
80	0x3d296aa5	0.04136147
81	0xbd4a3618	-0.049367994
82	0x3b9cabfa	0.0047812434
83	0xbcf5f2cb	-0.030023
84	0x3d9e84b2	0.07740153
85	0x3d6fd607	0.05855372
86	0x3d18904f	0.037247
87	0xbd52b538	-0.051442355
88	0x3cda8537	0.02667485
89	0xbce989a4	-0.028508015
90	0xbd66d51f	-0.056355592
91	0xbc41ca77	-0.011828057
92	0x3debd866	0.11515884
93	0xbd7c21ac	-0.06155555
94	0xbd980b3f	-0.0742402
95	0xbdb0fdbd	-0.08642147
96	0x3c94b004	0.018150337
97	0x3c9067dd	0.01762765
98	0xbc4ffcde	-0.012694566
99	0x3c1f68f5	0.009729614
100	0xbd9a2eed	-0.07528482
101	0xbe0cf3a4	-0.13764817
102	0x3d263185	0.04057457
103	0x3d61ae7d	0.055098046
104	0x3c27a925	0.010233198
105	0xbc2fef59	-0.010738217
106	0xbd869a15	-0.065723576
107	0xbdddd748	-0.10832077
108	0xbd604bfc	-0.054759964
109	0xbcdb5279	-0.026772724
110	0x3cca8bfa	0.02472495
111	0xbb920aa9	-0.004456837
112	0xbd968887	-0.07350259
113	0xbb8e32d7	-0.0043395567
114	0x3dc7eaef	0.09761607
115	0x3d4946de	0.04913985
116	0x3cd765bd	0.02629363
117	0xbb95ccb9	-0.004571524
118	0xbd4e9321	-0.05043328
119	0x3d63ec96	0.055645548
120	0xbc73080f	-0.014833464
121	0xbdbd44fc	-0.09241673
122	0x3dcde54d	0.10053501
123	0x3de48372	0.11157884
124	0x3d29fdcd	0.04150181
125	0x3e5e6bdb	0.21720831
126	0xbc363def	-0.011123165
127	0x3ceb5360	0.02872628
128	0xbe1689a9	-0.1470095
129	0xbcc60a9a	-0.024174977
130	0x3c25b12d	0.010113043
131	0xbdd26921	-0.10273958
132	0xbd135e22	-0.035978444
133	0xbd255467	-0.040363695
134	0xbe2aae3b	-0.16668026
135	0x3d9bfb77	0.076163225
136	0x3d3e3c6e	0.04644435
137	0xbd78ac28	-0.060711056
138	0xbc20de2b	-0.009818594
139	0x3d775a60	0.060388923
140	0xbddeab2f	-0.108724944
141	0xbd89600e	-0.06707774
142	0xbd02410f	-0.031800326
143	0xbd91fe1d	-0.071285464
144	0x3cee9ae9	0.029126601
145	0xbd49f394	-0.04930456
146	0x3dadff95	0.08496014
147	0xbd7796fd	-0.060446728
148	0xbd077f6e	-0.03308051
149	0xbcdc4318	-0.026887462
150	0xbca8e7e8	-0.020618394
151	0x3cc620fc	0.02418565
152	0xbdafcaea	-0.08583625
153	0xbd9eb072	-0.07748498
154	0xbd3ca4ab	-0.046055477
155	0xbbf07e6e	-0.0073392903
156	0xbd6626ab	-0.05618922
157	0xbd854340	-0.065069675
158	0xbdf1156d	-0.11771665
159	0x3d6e4f46	0.05818107
160	0x3d4f0127	0.05053821
161	0xbd861985	-0.06547836
162	0x3d64599a	0.055749513
163	0x3d845e1e	0.06463264
164	0x3d931ddf	0.07183432
165	0x3d2deea1	0.042463902
166	0xba6630b7	-0.0008781063
167	0x3d9a72f8	0.0754146
168	0xbcc8831f	-0.024476586
169	0x3bd64f04	0.006540181
170	0xbdb8da58	-0.09026021
171	0x3c8a9d8a	0.016920824
172	0xbd5664d6	-0.05234226
173	0x3db10f95	0.0864555
174	0xbd3fb574	-0.046803907
175	0x3d905369	0.07047159
176	0x3dca0b50	0.09865439
177	0xbd972407	-0.073799185
178	0x3c6205fb	0.013795371
179	0x3db481b9	0.08813805
180	0xbd19e667	-0.037573244
181	0xbd05b78c	-0.032645747
182	0x3cb74aed	0.022374595
183	0x3c6729a9	0.014109054
184	0xbc26488f	-0.010149135
185	0xbde541c3	-0.11194184
186	0xbc151cb0	-0.009101078
187	0x3d71dd96	0.05904921
188	0xbc97a7c1	-0.018512608
189	0x3c33ebbe	0.010981498
190	0x3de4b013	0.11166396
191	0x3c3d57b8	0.011556558
192	0x3cc3584e	0.023845818
193	0x3d16bf94	0.036803797
194	0xbb674094	-0.0035286294
195	0x3d193e10	0.037412703
196	0x3cafb51d	0.021448666
197	0x3cb32a2a	0.021870691
198	0x3d5adeba	0.053435065
199	0xbd4323c1	-0.04764152
200	0x3d7a5910	0.061120093
201	0x3b9fe942	0.0048801014
202	0xbd738bc3	-0.05945946
203	0xbdce5bea	-0.10076125
204	0xbd3f808f	-0.046753462
205	0xbd8c1097	-0.06839102
206	0xbe246e76	-0.16057763
207	0x3dc671d6	0.09689681
208	0xbd402c9d	-0.046917547
209	0xbe048aec	-0.1294362
210	0x3c819d39	0.01582204
211	0xbcd2bde0	-0.025725305
212	0xbd900595	-0.07032315
213	0x3d0b4cfb	0.03400896
214	0x3b970644	0.004608901
215	0xbd85c490	-0.06531632
216	0xbb268fe1	-0.0025415348
217	0x3daac3ff	0.083381645
218	0xbc4bf9af	-0.012449666
219	0xbdafd20b	-0.085849844
220	0xbd950336	-0.07276003
221	0x3d913db4	0.07091847
222	0xbd7331c1	-0.05937362
223	0xbd7df1b5	-0.061998088
224	0xbc16f48e	-0.00921358
225	0xbd32c580	-0.043645382
226	0xbcddca61	-0.02707404
227	0x3d1b928c	0.037981555
228	0xbdad6990	-0.084674
229	0x3cc53c81	0.024076702
230	0xbc4c8221	-0.012482197
231	0xbdd17007	-0.10226446
232	0x3d4b121f	0.04957783
233	0x3dd1eb6d	0.10249982
234	0x3d701b6f	0.058619913
235	0x3dc60c51	0.09670318
236	0x3d2f3e72	0.042784162
237	0x3d036e74	0.03208776
238	0x3d5f3b67	0.05450001
239	0x3e3a1d09	0.18175139
240	0xbda6805c	-0.08129951
241	0xbc95db4f	-0.018293051
242	0x3d14df37	0.036345687
243	0x3c19faf6	0.009398213
244	0x3cf5e20b	0.030015012
245	0x3da0904d	0.07840023
246	0xbd87ce99	-0.06631202
247	0x3b918340	0.004440695
248	0x3dc2c45f	0.09510111
249	0xbc186f7d	-0.009303925
250	0x3d2990b2	0.041397758
251	0x3dc3fade	0.095693335
252	0x3d9835f2	0.07432164
253	0xbc94937c	-0.018136732
254	0x3d8cddb3	0.06878223
255	0x3d730f3b	0.059340697

layer2.0.bn1.weight f4 [32]
0	0x3f76b016	0.96362436
1	0x3f6ff45a	0.93732226
2	0x3f86fc65	1.0545775
3	0x3f702a91	0.9381495
4	0x3f866aea	1.0501378
5	0x3f7ecd9d	0.9953249
6	0x3f83af8e	1.028795
7	0x3f7b8554	0.9825032
8	0x3f8638ee	1.0486124
9	0x3f7480a9	0.9550882
10	0x3f6fd44f	0.9368333
11	0x3f8186a9	1.011922
12	0x3f808d6f	1.0043162
13	0x3f827cef	1.0194377
14	0x3f8b4fdd	1.0883747
15	0x3f707db2	0.93941796
16	0x3f77ff5d	0.9687403
17	0x3f77f2e5	0.96855
18	0x3f79e60e	0.9761666
19	0x3f755e36	0.9584688
20	0x3f608b11	0.877122
21	0x3f85fc34	1.0467591
22	0x3f841d84	1.0321507
23	0x3f80efca	1.0073178
24	0x3f8eb79f	1.1149787
25	0x3f71d855	0.9447072
26	0x3f87818a	1.0586407
27	0x3f7da755	0.99083453
28	0x3f89a117	1.0752286
29	0x3f7833f7	0.9695429
30	0x3f7f4a12	0.997224
31	0x3f8000a2	1.0000193

layer2.0.bn1.bias f4 [32]
0	0xbdd76154	-0.10516611
1	0xbe6ce0ee	-0.23132679
2	0xbd5f7095	-0.054550726
3	0xbdb69a3c	-0.089161366
4	0xbdda467d	-0.10657976
5	0xbc2a9e9d	-0.010413793
6	0xbd44a781	-0.048011307
7	0xbdd62db4	-0.10457936
8	0xbde6d995	-0.11271969
9	0xbdfbafa6	-0.12289362
10	0xbdc041c7	-0.09387546
11	0xbe2c6bda	-0.16838017
12	0xbd4601d2	-0.04834158
13	0xbd2c9359	-0.04213271
14	0xbc73d171	-0.014881478
15	0xbe2d41e3	-0.16919665
16	0xbe2e4629	-0.17018951
17	0xbddc6eb0	-0.107632995
18	0xbe2ed53d	-0.17073531
19	0xbe4f3276	-0.20234093
20	0xbe241128	-0.1602217
21	0xbc68765e	-0.014188377
22	0xbe485c3e	-0.19566438
23	0xbd575515	-0.052571375
24	0x3d2c9b1e	0.04214012
25	0xbe25fb9c	-0.16209263
26	0xbdb4ac15	-0.088218845
27	0xbdf82578	-0.121165216
28	0xbdbf773a	-0.093489125
29	0xbd419ef8	-0.047270745
30	0xbe15b10f	-0.14618324
31	0xbdcff9ca	-0.10155065

layer2.0.bn1.running_mean f4 [32]
0	0xbe7ef3fa	-0.24897757
1	0x3e82b63d	0.25529662
2	0xbf31f9a2	-0.69521534
3	0xbf8c123f	-1.0943068
4	0xbfcb81a4	-1.5898938
5	0xbf57e1f8	-0.84329176
6	0xbf233448	-0.6375165
7	0x3d772559	0.060338352
8	0xbdfb792e	-0.122789726
9	0x3f137470	0.57599545
10	0xbe880c42	-0.26571852
11	0x3f1b971e	0.6077746
12	0x3e9619ff	0.29316708
13	0xbfdfcb3b	-1.7483896
14	0xbee9384b	-0.4555076
15	0x3f7b3a14	0.98135495
16	0x3fa04ae4	1.2522855
17	0xbfbd32c8	-1.4781122
18	0x3d947b61	0.07250095
19	0xbf55de24	-0.83542085
20	0x3fcfce64	1.623486
21	0xbffb02de	-1.961025
22	0xbebf305a	-0.37341577
23	0xc00fcd62	-2.2469106
24	0xbf9470d9	-1.1596938
25	0x3f76466d	0.9620121
26	0xbff3acb6	-1.9037082
27	0xbe93f617	-0.2889869
28	0xbfbd47e0	-1.478756
29	0x3f7ef04a	0.995854
30	0x3ef21bef	0.47286937
31	0xbfaebc1f	-1.365116

layer2.0.bn1.running_var f4 [32]
0	0x3f6c503b	0.9230992
1	0x3f0a5f2f	0.5405149
2	0x3fcb7f24	1.5898175
3	0x3f9ca5f7	1.2238148
4	0x3f5c1bdb	0.85980004
5	0x3f9893de	1.1920125
6	0x3f85c75d	1.0451466
7	0x3fb0cbe1	1.3812219
8	0x3f4588ab	0.77161664
9	0x3f851cc0	1.0399399
10	0x3f9f768b	1.2458051
11	0x3f71b92e	0.94423187
12	0x3f94f131	1.1636106
13	0x3ffe4fd4	1.9868112
14	0x3f99c620	1.2013588
15	0x3fe971b0	1.823782
16	0x3fad0bc1	1.3519212
17	0x3f374066	0.7158264
18	0x3eed0668	0.4629395
19	0x3f60319f	0.87575716
20	0x3fb59191	1.4185048
21	0x3fec014f	1.8437899
22	0x3f26d8ec	0.65174747
23	0x3fc91eb2	1.5712492
24	0x3fc7c6a5	1.5607497
25	0x3f98f9bf	1.1951216
26	0x3f95f18a	1.1714337
27	0x3f62291d	0.88343984
28	0x3fc25083	1.518082
29	0x3f8f1124	1.1177106
30	0x3f4b2996	0.7936033
31	0x3f96d889	1.1784831
